L13/code/save-and-load/saved_data/model.pt (torch, 250401 bytes, 10 tensors)

features.0.weight f4 [6, 1, 5, 5]
0	0x3f21cb80	0.6320114
1	0x3eeeda77	0.4665105
2	0x3e89bcfd	0.26902
3	0x3eeebaee	0.4662699
4	0x3dfa0f2c	0.12209925
5	0x3ed642af	0.4184775
6	0x3befea66	0.0073216436
7	0x3ca5a481	0.020220043
8	0xbbc9785b	-0.0061483807
9	0x3d616047	0.055023458
10	0xbe2d3112	-0.1691325
11	0xbeabb74f	-0.3353829
12	0xbe2ff7a5	-0.17184313
13	0xbdc20a11	-0.09474576
14	0x3e132a2c	0.14371556
15	0xbe91cba1	-0.2847567
16	0xbec33e21	-0.38133338
17	0xbec2912b	-0.3800138
18	0xbe2824e8	-0.16420329
19	0x3df033fd	0.11728666
20	0xbea3e868	-0.3201325
21	0xbea7adf4	-0.32749903
22	0xbe8e8a98	-0.27840114
23	0x3c8522fb	0.016252032
24	0x3e51de85	0.2049504
25	0xbe2826dc	-0.16421074
26	0xbe83735f	-0.2567396
27	0xbe9fc74c	-0.3120674
28	0xbe17962c	-0.1480338
29	0x3b1c6be4	0.0023868019
30	0xbeb3d4c9	-0.3512328
31	0xbf023236	-0.50857866
32	0xbe5b8349	-0.214368
33	0xbe1aa84a	-0.1510326
34	0x3d2c7b70	0.042109907
35	0xbde0bb8a	-0.1097327
36	0xbde38022	-0.11108424
37	0xbec29cc4	-0.38010228
38	0x3e0f298a	0.1398069
39	0x3e833928	0.25629544
40	0x3e1d2a24	0.15348107
41	0x3dee5e73	0.116391085
42	0x3dcc7cdb	0.09984752
43	0x3e891e6a	0.26781017
44	0x3ecec019	0.40380934
45	0x3ee02971	0.43781617
46	0x3e26f6e6	0.16305122
47	0x3e4da5db	0.200828
48	0x3dd2234b	0.10260638
49	0x3e579c1f	0.21055649
50	0xbe04834f	-0.12940715
51	0xbacb8dcb	-0.0015529928
52	0xbea7e64f	-0.327929
53	0xbf0a1e9e	-0.5395297
54	0xbeaaf535	-0.33390203
55	0xbe96e2af	-0.2946982
56	0x3e0d4f30	0.13799739
57	0xbd2a9d31	-0.041653816
58	0x3d022ae5	0.03177919
59	0xbeb3b5a6	-0.35099524
60	0xbca32bbd	-0.019918317
61	0x3e8e4165	0.27784267
62	0x3ea0f43d	0.3143634
63	0x3e43a14a	0.19104496
64	0x3e4d2f74	0.20037633
65	0x3e344733	0.17605285
66	0x3f042ac5	0.5162776
67	0x3f21620d	0.6304024
68	0x3ede5e99	0.43431547
69	0xbda0c5d7	-0.07850235
70	0x3e27b113	0.16376142
71	0x3f192107	0.5981602
72	0x3f092440	0.5357094
73	0x3eb1d417	0.34732124
74	0xbea07513	-0.3133932
75	0x3f082260	0.5317745
76	0x3e9052d9	0.28188208
77	0xbd11883e	-0.03553032
78	0xbd3d1960	-0.046166778
79	0x3dc6bb3e	0.09703682
80	0x3ee7ac50	0.45248652
81	0xbe02ed30	-0.12785792
82	0xbefbaf69	-0.49157265
83	0xbeaac173	-0.33350715
84	0xbcc4ec7e	-0.02403855
85	0x3e3a0a5c	0.18168014
86	0xbef5f2fb	-0.48036942
87	0xbe7773d2	-0.24165276
88	0xbea5d27c	-0.3238715
89	0xbd0a0dba	-0.033704497
90	0xbdd96323	-0.10614612
91	0xbdc7a9ba	-0.0974917
92	0xbe4357b7	-0.1907643
93	0x3def7bde	0.11693548
94	0xbe05a28e	-0.13050291
95	0xbe80706b	-0.25085768
96	0xbd5be5db	-0.053686004
97	0x3e43fa90	0.19138551
98	0x3d3ef2ea	0.04661838
99	0x3e31566f	0.17318128
100	0x3e7af184	0.24506193
101	0x3e92f062	0.28699023
102	0x3f180878	0.5938792
103	0x3ebf27e4	0.37335122
104	0x3e1e301b	0.15448038
105	0x3def93ba	0.116980985
106	0x3e19ddc0	0.15025997
107	0x3da2123c	0.07913634
108	0x3e7c5d9a	0.24645081
109	0xbd43db4a	-0.047816552
110	0xbf01bc80	-0.50678253
111	0xbe888463	-0.26663503
112	0xbc666e51	-0.014064387
113	0x3e961ce5	0.2931892
114	0x3e70c0cd	0.23511048
115	0xbece2f7a	-0.40270597
116	0xbe3638c8	-0.17795098
117	0xbea24fbd	-0.3170146
118	0x3db8c02d	0.090210296
119	0x3e084f1c	0.13311428
120	0xbd94076c	-0.07227978
121	0xbe5d50f7	-0.21612917
122	0xbe5df381	-0.2167492
123	0xbdad9cbf	-0.084771626
124	0x3e949bee	0.29025215
125	0x3eb0e15f	0.34546944
126	0x3da56920	0.08076692
127	0x3d027c29	0.03185669
128	0xbe3d261c	-0.18471569
129	0xbeb89f93	-0.36059245
130	0x3e49c7d2	0.19705132
131	0xbe8e6aa2	-0.2781573
132	0xbea0a8d9	-0.3137882
133	0xbd083b85	-0.033259887
134	0xbeca6d88	-0.3953669
135	0x3e2e3537	0.17012487
136	0xbedfc597	-0.43705437
137	0xbf073c43	-0.5282633
138	0xbebb5be3	-0.36593542
139	0xbeea7a2d	-0.45796338
140	0x3e8bf790	0.27337313
141	0x3d8eaf6e	0.06967054
142	0xbef0493e	-0.4693088
143	0xbe93c706	-0.2886278
144	0xbd872f02	-0.06600763
145	0x3f0043e5	0.501036
146	0x3e03dea4	0.128779
147	0x3e9ac112	0.30225426
148	0x3e34b48b	0.17646997
149	0x3f13cd00	0.5773468

features.0.bias f4 [6]
0	0xbebd9fed	-0.37036076
1	0xbbc3d3f2	-0.0059761936
2	0x3f3b59fa	0.7318417
3	0x3e944526	0.28959006
4	0xbf620fe6	-0.8830551
5	0xbf28225c	-0.6567743

features.3.weight f4 [16, 6, 5, 5]
0	0x3d8fe7df	0.07026648
1	0x3cd683dc	0.026185922
2	0xbca8071c	-0.020511203
3	0xbe2183b7	-0.15772901
4	0x3b9fba9b	0.00487454
5	0x3d2fe4f0	0.04294294
6	0xbe4868ac	-0.19571179
7	0xbdfbab2d	-0.122885086
8	0x3b258fce	0.0025262716
9	0x3d810ce9	0.063012905
10	0xbe56a6bf	-0.20962046
11	0x3c30c962	0.010790201
12	0x3e6cd1bd	0.23126884
13	0x3e15d945	0.14633663
14	0x3d669416	0.05629357
15	0xbd84426e	-0.06457983
16	0x3dada81a	0.084793285
17	0x3e189d49	0.1490375
18	0x3e36d370	0.17854095
19	0x3a9d56af	0.0012003983
20	0x3ceaa380	0.028642416
21	0x3d28bc89	0.041195426
22	0xbd3fce39	-0.04682753
23	0xbd4ecb2e	-0.050486736
24	0x3dd924e6	0.10602741
25	0xbd8b64e3	-0.06806352
26	0x3b6c8203	0.0036088235
27	0x3d93c5a4	0.07215431
28	0xbc31b58e	-0.010846509
29	0xbd2c2ba3	-0.042033803
30	0x3d82ee82	0.06393148
31	0x3cdb7336	0.026788335
32	0xbbe47fd6	-0.006973247
33	0xbd636c02	-0.055522926
34	0x3c8bc9eb	0.017064055
35	0xbdb6f2c2	-0.08933021
36	0xbe35b3fb	-0.17744438
37	0xbdb9f1c8	-0.09079319
38	0xbc8e57ee	-0.017375913
39	0x3daacd82	0.08339979
40	0xbe565e9c	-0.20934528
41	0xbea46810	-0.32110643
42	0xbc1bb056	-0.009502491
43	0xbde3d03e	-0.111237034
44	0xbe46e764	-0.19424206
45	0x3cd297ee	0.025707211
46	0x3d1cf449	0.038318906
47	0xbc89aa1a	-0.016804744
48	0xbe5f44d0	-0.21803594
49	0xbdc49189	-0.09598071
50	0x3e041438	0.12898338
51	0x3e1e6566	0.15468368
52	0x3d1f7dbf	0.03893828
53	0x3e94ecb8	0.29086852
54	0x3c97dc58	0.018537685
55	0x3e9542d9	0.29152563
56	0x3e346131	0.176152
57	0x3dbe9606	0.093059584
58	0x3e06ad56	0.1315206
59	0x3e070241	0.13184454
60	0x3dcc4fc7	0.09976154
61	0xbce0b6c9	-0.027430909
62	0x3d548fae	0.051894836
63	0x3e0cf9c1	0.13767149
64	0x3e3c364f	0.18380092
65	0xbd63d885	-0.05562641
66	0x3e182e51	0.14861418
67	0x3e053d54	0.13011676
68	0xbbf65672	-0.0075176293
69	0xbe0fe115	-0.14050706
70	0xbdbeed61	-0.0932262
71	0x3e60fba8	0.21970999
72	0x3dde25bf	0.10847043
73	0xbca5aee5	-0.020224998
74	0xbe5729dc	-0.21012062
75	0xbe12d5ac	-0.14339322
76	0xbb981b04	-0.0046418924
77	0x3d7be231	0.06149501
78	0x3c973d6e	0.01846191
79	0xbd42cf8d	-0.047561217
80	0x3c4eb38d	0.01261605
81	0xbc7dc864	-0.015489671
82	0xbd90b8b4	-0.07066479
83	0xbc8adae2	-0.016950075
84	0x3d884eb0	0.066556334
85	0xbe1f2d85	-0.15544708
86	0xbe657d0c	-0.22410983
87	0xbd6a9aae	-0.05727642
88	0xbd038389	-0.032107864
89	0xbddee084	-0.10882667
90	0xbe227c9c	-0.15867847
91	0x3ddc7138	0.10763782
92	0x3dad33d7	0.08457153
93	0x3db201f9	0.086917825
94	0xbd7b83c6	-0.061404966
95	0xbd00f04d	-0.03147917
96	0xbd609c07	-0.0548363
97	0x3d8e257b	0.069407426
98	0xbca7553f	-0.02042639
99	0x3e0006b8	0.12502563
100	0xbd8480c9	-0.06469876
101	0xbd4e1220	-0.050310254
102	0x3d0d82cd	0.03454857
103	0xbdb1dd03	-0.08684733
104	0x3e436e6a	0.19085088
105	0x3c964bf8	0.018346772
106	0xbe0bcea5	-0.13653047
107	0xbd5baf92	-0.053634234
108	0x3e31da05	0.17368324
109	0x3e4b69b8	0.19864547
110	0x3c99a000	0.018753052
111	0x3d8b6d9a	0.06808014
112	0x3e4fe9d3	0.2030404
113	0x3e46276e	0.19350979
114	0x3e16ff0b	0.14745729
115	0x3db9e942	0.090776935
116	0x3e1b3ee7	0.15160714
117	0x3d824dbd	0.06362484
118	0x3e6b4324	0.22974831
119	0x3e1eda3e	0.1551294
120	0x3e145b8e	0.1448805
121	0x3ccac1e4	0.024750657
122	0x3c8c9f0a	0.01716568
123	0xbd3241c5	-0.043519754
124	0x3df94e7a	0.12173171
125	0x3c2b304e	0.010448528
126	0x3e222df0	0.15837836
127	0xbd15f101	-0.036606792
128	0xbdd15563	-0.10221364
129	0xbe355f7e	-0.17712209
130	0xbcd46199	-0.025925444
131	0xbe1036df	-0.14083432
132	0xbe4baede	-0.19890925
133	0xbd367a2f	-0.044550117
134	0x3e0de2d8	0.13856065
135	0xbe3c9216	-0.18415102
136	0xbe895245	-0.2682058
137	0xbe4c980f	-0.19979881
138	0xbdf2d207	-0.11856466
139	0xbe17c076	-0.14819512
140	0xbe188e16	-0.14897951
141	0xbdfac5a0	-0.12244725
142	0xbd6d79be	-0.05797743
143	0xbe822bb9	-0.25423983
144	0xbea51d6f	-0.3224902
145	0x3cb5b06a	0.022178847
146	0xbd915bcd	-0.07097588
147	0xbd2d66f3	-0.04233451
148	0x3d5ef4d7	0.054432716
149	0xbbdccb21	-0.006738082
150	0x3e177575	0.147909
151	0xbe1b360b	-0.15157335
152	0xbd671395	-0.05641516
153	0x3d181ea3	0.037138592
154	0xbd9588ac	-0.07301459
155	0x3c82d95a	0.015972782
156	0xbdba9e58	-0.09112233
157	0x3ca0c6f2	0.019626115
158	0x3e08dc2c	0.13365239
159	0x3e138829	0.1440741
160	0xbda9c452	-0.08289398
161	0xbd2bfcc0	-0.041989088
162	0x3db5a4b0	0.08869302
163	0xbd7f9ccf	-0.062405404
164	0x3deb9f08	0.11504942
165	0x3c8368fd	0.016041273
166	0xbd574c45	-0.05256297
167	0xbc962dcb	-0.018332383
168	0xbd0137b6	-0.03154727
169	0xbdd3fe53	-0.10351243
170	0x3c5b9038	0.013401084
171	0xbdab1ec7	-0.0835548
172	0x3d2a8897	0.04163417
173	0x3e48ef84	0.19622618
174	0x3df9e497	0.12201803
175	0x3dd418c7	0.103562884
176	0x3d933c4c	0.07189235
177	0x3cc30540	0.023806214
178	0x3cb29ee7	0.021804286
179	0xbd8e487f	-0.06947421
180	0xbc5d85dd	-0.013520685
181	0xbe44973d	-0.19198318
182	0xbc3b9679	-0.01144945
183	0x3d96ba9b	0.07359811
184	0xbe25c49d	-0.16188283
185	0xbc90b5ed	-0.017664874
186	0xbe389428	-0.18025267
187	0x3ddc4090	0.10754502
188	0x3e4fc2f3	0.20289211
189	0x3e1fecba	0.15617648
190	0xbd1e4b97	-0.038646307
191	0xbe1e7e8e	-0.15477964
192	0x3e518b98	0.20463407
193	0x3dc6e908	0.09712416
194	0x3dff2fac	0.124602646
195	0x3e007ce9	0.1254765
196	0xbdb94a56	-0.090473816
197	0xbe323441	-0.17402746
198	0xbe48e7ff	-0.1961975
199	0x3c293c46	0.010329312
200	0x3cbfc275	0.023408154
201	0x3d0af437	0.033924308
202	0xbe29544a	-0.1653606
203	0xbdb452ba	-0.08804841
204	0xbe7b27fc	-0.24526972
205	0x3df41969	0.11918909
206	0x3da56ded	0.08077607
207	0xbe325ef8	-0.1741904
208	0xbe9dff9d	-0.3085908
209	0xbe899b8e	-0.2687649
210	0x3e526ebd	0.20550056
211	0x3e2b6594	0.16737968
212	0x3dc4b74b	0.09605273
213	0x3d92e291	0.0717212
214	0x3dc7a6dd	0.097486235
215	0x3e5773b3	0.2104023
216	0x3e907d99	0.28220823
217	0x3e999581	0.29996875
218	0x3ec11f42	0.3771916
219	0x3e664557	0.22487389
220	0x3e830bb9	0.2559488
221	0x3e4a2035	0.19738849
222	0xbdc56c36	-0.0963978
223	0xbd365e74	-0.04452367
224	0xbd5f5d73	-0.05453248
225	0x3d0a7814	0.03380592
226	0xbe2f7d30	-0.17137599
227	0x3e106638	0.14101493
228	0x3dd1fbf5	0.10253135
229	0xbd867548	-0.065653384
230	0xbd2c28ce	-0.042031102
231	0xbc3e4396	-0.011612793
232	0x3dd71dec	0.10503754
233	0x3d1f5cfd	0.03890704
234	0xbbae008c	-0.005310124
235	0xbe5e49f0	-0.21707892
236	0x3cbd1d79	0.023085343
237	0x3d391750	0.04518825
238	0x3e2a13a4	0.16609055
239	0x3e05458b	0.1301481
240	0xbe010ea8	-0.12603247
241	0x3db86b3d	0.09004829
242	0xbdb6a570	-0.089182734
243	0xbdd414e0	-0.10355544
244	0xbd94d0f6	-0.07266419
245	0xbe502c74	-0.20329458
246	0xbd22e3d2	-0.039768048
247	0xbd07f87d	-0.03319596
248	0xbcaae52b	-0.020861229
249	0xbc4c5c77	-0.012473217
250	0x3e0225bd	0.12709709
251	0xbd4663a9	-0.048434887
252	0x3d18037b	0.037112694
253	0x3e46392f	0.19357751
254	0x3da8894c	0.08229312
255	0x3e0091a4	0.12555557

features.3.bias f4 [16]
0	0xbe1d6b1d	-0.15372892
1	0xbd77a77d	-0.060462464
2	0xbd43abb0	-0.047771156
3	0xbd30ba18	-0.043146223
4	0xbeaca5ee	-0.33720344
5	0xbe556d53	-0.20842485
6	0xbe681e81	-0.22667886
7	0xbe56e467	-0.20985566
8	0xbda26b93	-0.079306744
9	0xbe78e5a3	-0.2430635
10	0xbe73b3f1	-0.23799111
11	0xbe6fca27	-0.23416959
12	0xbef7f1de	-0.48426718
13	0xbeaba22f	-0.33522174
14	0xbe4db0b4	-0.20086938
15	0x3c49a6d1	0.012307839

classifier.0.weight f4 [120, 400]
0	0xbd9c6d04	-0.076379806
1	0xbd7e3112	-0.062058516
2	0xbc94a0fe	-0.018143173
3	0x3c79fe32	0.015258359
4	0xbcd67bb8	-0.02618204
5	0xbd73d114	-0.059525564
6	0xbd5b7731	-0.053580467
7	0x3c9d23f2	0.01918218
8	0x3ca0588d	0.019573474
9	0x3d582b6f	0.052775797
10	0x3d32db5d	0.043666232
11	0x3d8bc05d	0.068238
12	0x3d6aeeaa	0.057356514
13	0x3b98031c	0.0046390425
14	0xbd2277e0	-0.039665103
15	0x3df1573b	0.11784216
16	0xbc4111d0	-0.011784032
17	0xbdf81ec4	-0.12115243
18	0xbc03ad98	-0.008036993
19	0xbcc31b33	-0.02381668
20	0xbcb32982	-0.021870378
21	0xbd28df30	-0.041228473
22	0xbcc802cc	-0.024415396
23	0x3cda2d56	0.026632946
24	0x3c04d0ae	0.008106394
25	0xbd4a5bea	-0.049404062
26	0xbd08b106	-0.033371948
27	0x3de646ba	0.11243959
28	0x3c3e8304	0.011627916
29	0x3bb8c5bd	0.0056388066
30	0xbd58ce7d	-0.052931298
31	0xbd864d98	-0.065577686
32	0xbcdc5873	-0.026897645
33	0x3d9b779c	0.07591173
34	0xbd29ac83	-0.041424286
35	0x3dca4d71	0.09878052
36	0xbd0e8e38	-0.0348036
37	0x3d0cb731	0.034354392
38	0xbd493815	-0.04912575
39	0x3c990454	0.018678822
40	0x3dbe84bc	0.09302661
41	0xbc05aa51	-0.008158282
42	0xbddf9329	-0.109167404
43	0x3c52c1df	0.012863605
44	0xbd1937a7	-0.03740659
45	0x3daabfeb	0.08337387
46	0x3d02de1b	0.031950098
47	0x3b4a5a9d	0.0030876764
48	0xbb62c87f	-0.0034604368
49	0xbd417f36	-0.04724046
50	0x3d91e0b7	0.07122939
51	0x3d90b83b	0.07066389
52	0xbcd7c286	-0.026337873
53	0xbd4ab789	-0.04949144
54	0xbbf3c265	-0.007438945
55	0x3d4510f1	0.04811186
56	0xbd022403	-0.031772625
57	0x3bc55121	0.006021634
58	0x3da766ca	0.08173902
59	0x3dac23f4	0.08405295
60	0xbd2094ab	-0.03920428
61	0xbd868adf	-0.06569456
62	0x3db12bb2	0.08650912
63	0x3db1d37d	0.08682916
64	0x3d0d4fa6	0.034499787
65	0xba2f0366	-0.00066762266
66	0x3dc47e60	0.095944166
67	0x3d0acc99	0.033886526
68	0xbd45dfde	-0.0483092
69	0xbd019b70	-0.031642377
70	0xbd199b3c	-0.03750156
71	0xbc8b2085	-0.01698328
72	0xbbbc676b	-0.005749633
73	0x3d2f381c	0.04277812
74	0x3caf4883	0.021396881
75	0x3ca5b622	0.02022845
76	0xbdf6c612	-0.12049498
77	0xbc7672f3	-0.0150420545
78	0x3ddb53be	0.10709332
79	0x3d9a0ab3	0.07521572
80	0xba9a13b2	-0.0011755137
81	0x3c606fbd	0.0136985155
82	0x3d39d424	0.04536833
83	0x3d63c7d8	0.055610508
84	0x3cc04856	0.023471992
85	0xbcae9618	-0.021311805
86	0xbb8df378	-0.0043320023
87	0x3c27b5f1	0.010236249
88	0x3d994363	0.07483556
89	0x3c8cbcb8	0.017179832
90	0xbd803798	-0.06260604
91	0xbdd7f5fb	-0.10544964
92	0x3d3f8df3	0.046766233
93	0x3caf12f0	0.021371335
94	0xbaaa4c72	-0.0012992753
95	0x3d343262	0.04399336
96	0x3d31884d	0.043342877
97	0xbd87b01f	-0.06625389
98	0x3d100028	0.0351564
99	0x3d421cb5	0.04739066
100	0x3be27c7b	0.006911812
101	0x3ae5a7d5	0.0017521331
102	0xbd81a419	-0.06330127
103	0xbc93edf9	-0.01805781
104	0xbd00df05	-0.031462688
105	0xbd342a53	-0.043985676
106	0x3d6a7f9c	0.057250604
107	0xbd1d745e	-0.038441055
108	0x3b233ee4	0.0024909312
109	0xbccc1067	-0.024910165
110	0x3b0fcea4	0.0021943236
111	0x3daca1ff	0.08429336
112	0x3b0defae	0.0021657753
113	0x3d3b10f4	0.045670465
114	0xbb9829ef	-0.0046436707
115	0x3db1fd18	0.08690852
116	0xbba69663	-0.0050838455
117	0xbd48ad1d	-0.04899322
118	0xbca010e8	-0.019539312
119	0x3c915243	0.01773942
120	0xbc2b31ce	-0.010448886
121	0xbcdb3f27	-0.026763512
122	0xbd21d888	-0.03951314
123	0x3d7aa8d3	0.06119616
124	0x3c2e63bb	0.010643895
125	0xbdbe0bc9	-0.092795916
126	0xbd9bd4e9	-0.07608969
127	0xbd2221de	-0.03958308
128	0xbd2b5428	-0.041828305
129	0x3d8d9c22	0.069145456
130	0xbcf18627	-0.029482914
131	0x3ca0b0ed	0.019615615
132	0x3d46dfa1	0.048553113
133	0x3c25084b	0.010072778
134	0x3d957fe2	0.07299782
135	0x3cbb5cd4	0.022871412
136	0x3d85b044	0.065277606
137	0x3c3a65b9	0.011376792
138	0xbd81be49	-0.06335122
139	0x3cd77c06	0.026304256
140	0x3cce1f90	0.025161535
141	0x3bc83717	0.006110083
142	0x3ace17b8	0.0015723621
143	0xbd8f37dc	-0.06993076
144	0xbd93eca6	-0.072228715
145	0xbc007449	-0.007840225
146	0xbd84447b	-0.06458374
147	0xbd1acb86	-0.03779175
148	0xbdbbaf2a	-0.09164269
149	0xbd103095	-0.03520258
150	0xbdb18bd9	-0.08669252
151	0x3afc57ae	0.0019252205
152	0xbdb0834a	-0.086187914
153	0xbc582755	-0.013192971
154	0x3cfc5c80	0.030805826
155	0xba4b8d71	-0.0007764912
156	0xbc0eed41	-0.008723558
157	0xbd9b0016	-0.07568376
158	0x3d2fae53	0.042890858
159	0xbb604ae7	-0.0034224333
160	0x3cdd3d41	0.027006747
161	0xbbafd9b6	-0.0053665293
162	0x3d900cfc	0.070337266
163	0x3c791158	0.015201889
164	0xbb0b1e1f	-0.002122767
165	0x3d8b29ce	0.06795083
166	0x3cf93f29	0.030425625
167	0xbc748213	-0.01492359
168	0xbd2789fa	-0.04090307
169	0xbced674f	-0.028979925
170	0x3d27777f	0.040885445
171	0xbdb89ecb	-0.09014662
172	0xbd25a8d6	-0.040444218
173	0xbc2903c3	-0.010315838
174	0xba8fc80a	-0.001096965
175	0xbbf37ab8	-0.0074304007
176	0x3ccb5104	0.024818905
177	0xbd0084a6	-0.031376503
178	0xbbfed2f3	-0.007776612
179	0x3c1f3b01	0.0097186575
180	0x3daa83b5	0.083259024
181	0xbda8ae91	-0.08236421
182	0xbd0798b7	-0.033104625
183	0xbe42403c	-0.18969816
184	0xbdd213d7	-0.102576904
185	0xbb3f6258	-0.0029202905
186	0xbcbe534d	-0.02323308
187	0xbd8e86c9	-0.06959302
188	0xbd36a309	-0.044589076
189	0xbd96e34a	-0.07367571
190	0x3c404a84	0.011736516
191	0xbde2294d	-0.11043034
192	0x3d2c9df2	0.042142816
193	0xbd251715	-0.040305216
194	0xbe153e86	-0.14574632
195	0xbdd2d2d7	-0.10294121
196	0x3db2bb5c	0.08727142
197	0x3d2b4b29	0.041819725
198	0x3c7bbc84	0.01536477
199	0xbd59d3bf	-0.053180452
200	0x3d4d0dac	0.050061867
201	0xbc8188b2	-0.015812252
202	0xbd91b193	-0.07113948
203	0xbd82d222	-0.06387736
204	0x3c3f0515	0.0116589265
205	0x3c83a721	0.016070904
206	0xbc057947	-0.008146591
207	0xbcbc6a55	-0.022999922
208	0x3d1cc72a	0.038275875
209	0x3dd78452	0.10523285
210	0x3da7eaab	0.08199056
211	0x3d34a52d	0.044102836
212	0x3b9451e6	0.0045263646
213	0x3db8b785	0.090193786
214	0x3b8872ff	0.004164099
215	0x3ca3f3fe	0.020013805
216	0x3d984ca6	0.074364945
217	0xbd81a621	-0.06330515
218	0x3d873fc7	0.066039614
219	0xbca55d0d	-0.020185972
220	0x3d7cf6bf	0.061758753
221	0x3d672ad3	0.056437325
222	0xbd2204e0	-0.03955543
223	0xbd024a7a	-0.031809308
224	0x3c54e63d	0.012994346
225	0x3d68434c	0.056704804
226	0x3d935840	0.07194567
227	0x3d9075b5	0.07053701
228	0xbbd9df57	-0.0066489386
229	0x3c9df875	0.019283513
230	0xbd454b84	-0.04816772
231	0x3da5410c	0.08069047
232	0x3dcafb31	0.09911192
233	0xbd3557f9	-0.04427335
234	0xbd4a0fbb	-0.049331408
235	0xbca7d90a	-0.020489234
236	0xbc42d523	-0.011891636
237	0xbbbcdf9e	-0.005763962
238	0x3d61c145	0.055115957
239	0x3d1dd0c6	0.03852918
240	0x3d0ef59f	0.03490221
241	0xbcedd257	-0.029030962
242	0xbaf5b113	-0.0018744789
243	0x3da25d24	0.079279214
244	0xbd043ced	-0.032284666
245	0x3d03d885	0.03218891
246	0xbd32d097	-0.043655958
247	0x3dace86e	0.0844277
248	0xbb132ee8	-0.0022458378
249	0x3c82f4ae	0.015985813
250	0xbd27ac11	-0.04093558
251	0xbd9366a8	-0.071973145
252	0xbd8d6a05	-0.06904987
253	0x3d85527e	0.06509875
254	0x3ce45a0f	0.027874975
255	0x3bdfd2b0	0.006830536

classifier.0.bias f4 [120]
0	0x3aba0a30	0.001419371
1	0xbcb4cc08	-0.022069946
2	0x3ce1b8f7	0.027554018
3	0x3b2bffec	0.002624507
4	0x3b618638	0.0034412276
5	0x3b9cca31	0.0047848453
6	0x3d32327f	0.043505188
7	0x3d3dc37c	0.046329007
8	0x3c735ca2	0.014853628
9	0xbc317c83	-0.010832909
10	0x3d2c88bb	0.042122584
11	0x3d953d89	0.072871275
12	0x3ba0c856	0.0049066944
13	0x3d2fcdca	0.042920865
14	0xbc54351d	-0.012952116
15	0x3bad5f12	0.0052908743
16	0x3d0d19cc	0.03444843
17	0x3cbff642	0.023432855
18	0xbaa44edd	-0.001253571
19	0xbcb5ab5b	-0.022176435
20	0x3cb626c6	0.022235285
21	0x3d4713df	0.048602935
22	0xbdad124c	-0.084507555
23	0x3ce698c1	0.02814901
24	0x3c186d70	0.009303436
25	0xbcf05b38	-0.029340371
26	0xbd5cb0cb	-0.05387954
27	0xbda77bc9	-0.08177907
28	0xbbbec13e	-0.005821376
29	0xbcf8ff30	-0.03039512
30	0x3d1d8390	0.038455546
31	0xbdbdc1d7	-0.09265488
32	0x3bebc91f	0.0071956064
33	0x3a085cc0	0.0005201809
34	0xbd494728	-0.049140126
35	0xbd0a54a9	-0.033772144
36	0x3c9f6ea9	0.019461947
37	0x3d60e9ca	0.05491046
38	0xbd0a2670	-0.033728063
39	0x3b9ea50b	0.004841452
40	0x3da8dc43	0.082451366
41	0x3d0f74ad	0.03502338
42	0xbb966247	-0.0045893523
43	0x3cb6a3a5	0.022294829
44	0xbd11b604	-0.035573974
45	0xbb756171	-0.0037442113
46	0xbd2690ba	-0.040665366
47	0x3d1771a2	0.036973603
48	0x3c06761e	0.008206872
49	0x3d0a1a00	0.0337162
50	0x3c4783d9	0.012177431
51	0x3d38bb89	0.045100722
52	0x3d229fe2	0.039703257
53	0x3d41bc35	0.04729863
54	0xbcf1a119	-0.029495763
55	0xbd21ca05	-0.0394993
56	0x3c59c38f	0.013291254
57	0xbc1c3edf	-0.009536474
58	0x3cee9251	0.029122503
59	0xbd4452a9	-0.047930393
60	0xbcf329c2	-0.029682998
61	0x3c666caf	0.014063998
62	0xbcaef8b6	-0.021358829
63	0x3d068927	0.032845642
64	0x3cb33947	0.021877898
65	0xbc898d8b	-0.016791126
66	0xbd7d37ae	-0.06182068
67	0xbccb8bce	-0.024846938
68	0x3ccacaf9	0.024754988
69	0x3b801f96	0.0039100153
70	0xbd1d5b0d	-0.03841691
71	0xbca50e2d	-0.020148361
72	0xbd8927dd	-0.066970564
73	0x3bbfc413	0.0058522313
74	0xbd526960	-0.051370025
75	0xbcebc61f	-0.028780995
76	0x3ddc63f0	0.10761249
77	0x3cd29f27	0.025710655
78	0x3d017b6e	0.031611852
79	0xbdd3a7e8	-0.1033476
80	0xbd13ebb9	-0.036113475
81	0x3c19ffe1	0.009399385
82	0x3c884cde	0.016638216
83	0xbd079179	-0.033097718
84	0x3b1b0965	0.0023656723
85	0x3d356807	0.04428866
86	0xbc25dd0a	-0.010123501
87	0x3d06d16e	0.03291457
88	0x3b9400ee	0.0045167124
89	0xbce4f389	-0.027948158
90	0xbd28b3c3	-0.04118706
91	0xbc8d390f	-0.017239122
92	0xbd2ead04	-0.04264547
93	0x3c71038e	0.01471032
94	0xbb560ff4	-0.0032663317
95	0x3ceffcd4	0.029295363
96	0x3b7df18e	0.0038748714
97	0xbca2e962	-0.019886676
98	0xbd017995	-0.03161009
99	0x3c3f978d	0.011693847
100	0x3d5fe447	0.05466106
101	0x3d0e3de8	0.034727007
102	0xbc1a53bf	-0.009419381
103	0x3d0efbd2	0.034908123
104	0xbd00856f	-0.031377252
105	0xb8ffc183	-0.00012195392
106	0xbbc40e80	-0.005983174
107	0x3c883f0c	0.016631626
108	0x3c62593b	0.0138152195
109	0x3be2a28f	0.006916351
110	0xbd49f4b3	-0.04930563
111	0x3d4d7dc9	0.050168786
112	0xbd37f8de	-0.044915073
113	0xbd23457e	-0.039861195
114	0xbc21a94a	-0.009867022
115	0x3d837e29	0.064205475
116	0xbc66702a	-0.014064828
117	0x3d23e895	0.04001673
118	0xbd29cd26	-0.04145541
119	0xbd21fbd8	-0.039546818

classifier.2.weight f4 [84, 120]
0	0x3d766744	0.060157076
1	0x3e223ef0	0.15844321
2	0xbe043b3f	-0.12913226
3	0xbda26260	-0.0792892
4	0xbdcacd96	-0.09902494
5	0xbdf76a26	-0.12080793
6	0x3c62de4a	0.013846943
7	0xbe4c8b94	-0.1997512
8	0x3d3aabd0	0.04557401
9	0x3d266ebe	0.040632956
10	0xbe11bc79	-0.14232053
11	0x3df3a3a2	0.11896445
12	0x3da7ed56	0.08199565
13	0xbc6de6ff	-0.014520406
14	0xbaf88a71	-0.0018962157
15	0x3d390b80	0.045176983
16	0x3d0dab55	0.034587223
17	0x3d3bf9f8	0.045892686
18	0xbda49b48	-0.0803743
19	0x3d040008	0.032226592
20	0x3d4c618c	0.049897715
21	0xbdf07fca	-0.11743124
22	0x3dbf0f8c	0.09329137
23	0xbcd6ba43	-0.026211863
24	0x3da08c38	0.078392446
25	0x3d7095ee	0.058736734
26	0xbd1138c5	-0.03545453
27	0x3dd25766	0.10270576
28	0xbe05738e	-0.13032362
29	0xbc9e7964	-0.019344993
30	0x3dcd9f82	0.10040189
31	0xbb9159f6	-0.004435773
32	0xbbe7d259	-0.007074636
33	0x3e3d5964	0.18491131
34	0xbc00b4d1	-0.00785561
35	0xbd74e81c	-0.05979167
36	0xbc88d008	-0.01670076
37	0xbe191a0c	-0.14951342
38	0x3b1ce590	0.002394054
39	0xbe2104a6	-0.1572443
40	0x3cd49edc	0.025954656
41	0x3d0ff4d5	0.0351456
42	0xbc888f0a	-0.016669769
43	0xbd8ba34f	-0.06818258
44	0x3d4437bb	0.04790471
45	0xbc585fee	-0.013206465
46	0x3da659bc	0.08122584
47	0xbd3a4d67	-0.045483973
48	0xbd5da9e7	-0.05411711
49	0xbe3a2469	-0.18177952
50	0xbd295558	-0.041341156
51	0xbcc800cf	-0.024414448
52	0xbd10e77a	-0.035377003
53	0x3dc01b60	0.09380221
54	0x3e312bc1	0.17301847
55	0x3e0b8664	0.13625485
56	0x3dcd2c78	0.10018247
57	0xb8a5e4ea	-7.910452e-05
58	0x3dd1b2a5	0.10239152
59	0x3d2d4c38	0.042309016
60	0xbde74a49	-0.11293466
61	0xbdad6a8c	-0.08467588
62	0xbd42ea12	-0.047586508
63	0xbd1f0d44	-0.03883101
64	0xbd8d96e2	-0.06913544
65	0x3c4151a9	0.011799254
66	0x3d853913	0.06505027
67	0xbb311502	-0.0027020578
68	0xbd529d15	-0.051419336
69	0xbda48b16	-0.08034341
70	0x3d0bedc7	0.03416231
71	0x3de5973b	0.112104855
72	0x3d3d3f27	0.046202805
73	0x3d385c74	0.045010045
74	0x3e50c746	0.20388517
75	0x3e336f16	0.17522845
76	0xbdef1898	-0.11674613
77	0xbc41d266	-0.011829948
78	0xbd3cbb85	-0.04607727
79	0x3d29e1ee	0.04147523
80	0xbcb32d81	-0.021872284
81	0xbdcdc266	-0.10046844
82	0x3bfe8870	0.0077677295
83	0xbc642d05	-0.013926749
84	0x3d6736dc	0.056448802
85	0xbbef6910	-0.0073062256
86	0x3cfbc506	0.030733597
87	0xbd2bdd31	-0.04195899
88	0x3d83a066	0.06427078
89	0x3d9cf66b	0.07664188
90	0x3df51ffc	0.11968991
91	0xbe0d6126	-0.1380659
92	0x3da576e5	0.08079318
93	0x3c3436f3	0.010999429
94	0xbcabfb9f	-0.020994006
95	0x39ea42b4	0.00044681656
96	0xbd821012	-0.063507214
97	0xbc816e4f	-0.01579967
98	0x3ca8eeea	0.020621736
99	0xbb14a905	-0.0022683751
100	0xbd4584bf	-0.0482223
101	0xbe68c226	-0.22730312
102	0x3dc1a290	0.094548345
103	0xbdacb39f	-0.084326975
104	0x3d18d2fa	0.037310578
105	0xbd4d08cc	-0.050057217
106	0x3d5397a7	0.0516583
107	0xbdf66e9d	-0.120328166
108	0xbd1c831b	-0.03821097
109	0x3d9c3f61	0.07629276
110	0xbe2612a1	-0.16218044
111	0x3c2fdadd	0.010733333
112	0x3ddf9663	0.10917356
113	0x3e178fb5	0.14800914
114	0xbd82166f	-0.06351935
115	0x3d00b8e4	0.031426325
116	0xbd8d9c01	-0.06914521
117	0xbdd8b7fc	-0.10581967
118	0x3dd55671	0.10416878
119	0xbd1a6c04	-0.037700668
120	0xb975d95b	-0.00023445992
121	0x3bf99ef9	0.007617828
122	0xbd15aa28	-0.036539227
123	0xbe05e9e5	-0.13077505
124	0xbdbb5373	-0.09146776
125	0xbe0764e8	-0.13222086
126	0xbdb41ec3	-0.0879493
127	0xbe2614fa	-0.1621894
128	0x3d227cad	0.03966968
129	0xbd00bbb8	-0.031429023
130	0xbd09d3ff	-0.03364944
131	0xbdea93f1	-0.11453999
132	0xbbdf1797	-0.006808232
133	0x3d936544	0.07197049
134	0x3cc3459d	0.023836905
135	0x3df103d8	0.11768311
136	0x3d919e4f	0.07110273
137	0x3dd4293b	0.103594266
138	0xbe07ae03	-0.13249974
139	0x3bf925fd	0.0076034055
140	0x3e4bc83d	0.19900604
141	0xbd2746c2	-0.040838964
142	0xbc038c97	-0.008029125
143	0xbd5b0f14	-0.053481176
144	0xbd7e1e15	-0.062040407
145	0xbc5a5321	-0.013325484
146	0x3d266852	0.04062683
147	0x3d9f22d7	0.07770317
148	0xbcef547f	-0.029215096
149	0xbd404e37	-0.04694959
150	0x3b92bfd2	0.004478433
151	0x3d33426c	0.043764517
152	0x3b9aac52	0.004720249
153	0x3d348c08	0.044078857
154	0xbde04b27	-0.10951834
155	0xbd096271	-0.033541147
156	0xbd365664	-0.044515982
157	0xbe043a86	-0.1291295
158	0xbd6cd8c1	-0.0578239
159	0x3d5c1278	0.05372855
160	0xbd87fc6a	-0.06639941
161	0x3dad6cb7	0.08468001
162	0xbd2efabc	-0.042719588
163	0x3cece226	0.02891643
164	0x3c3716e3	0.01117489
165	0x3db9640f	0.09052288
166	0x39a846b7	0.00032096144
167	0xbe12bc2c	-0.14329594
168	0x3d5a786d	0.053337503
169	0xbd93371f	-0.07188248
170	0x3d755fbd	0.059905756
171	0x3d2260e5	0.039643187
172	0xbd013193	-0.03154142
173	0xbc3cf443	-0.011532846
174	0x3d3bda01	0.0458622
175	0x3da420e9	0.080140896
176	0xbdfc6985	-0.12324814
177	0x3da67cf7	0.08129304
178	0x3d0513a1	0.032489423
179	0xbd0b5f72	-0.03402657
180	0xbd75d9e0	-0.060022235
181	0x3d3112c1	0.043230776
182	0x3d2e1bf2	0.04250712
183	0xbd58781c	-0.05284892
184	0xbd77dbee	-0.060512476
185	0xbdaa0229	-0.08301193
186	0x3dbbf7c9	0.09178121
187	0x3e13bdc9	0.14427866
188	0xbc913bc6	-0.017728698
189	0x3d51780f	0.051139887
190	0x3d2da10c	0.042389914
191	0x3d4e80b6	0.050415717
192	0x3e0a6b06	0.13517389
193	0xbe067e2b	-0.13134067
194	0x3d520c58	0.051281303
195	0x3cd94aa1	0.026524844
196	0xbb35da80	-0.0027748644
197	0x3ccf65f9	0.025317179
198	0xbdf7a541	-0.120920666
199	0xbd56b317	-0.052416887
200	0x3c9d0f4c	0.019172333
201	0x3c8588c9	0.016300576
202	0x3c5b68ef	0.013391717
203	0xbbf250ac	-0.0073948707
204	0xbdee5b98	-0.11638564
205	0x3b9b4321	0.004738227
206	0xbda030c2	-0.078218
207	0x3dd09327	0.10184317
208	0x3e290816	0.16506991
209	0x3e193159	0.14960231
210	0x3d27535d	0.040850986
211	0x3c45dae2	0.0120761115
212	0x3cc7a8f0	0.024372548
213	0xbd234e0a	-0.039869346
214	0xbdec8bd9	-0.11550111
215	0x3d23390d	0.03984933
216	0xbdbf060b	-0.093273245
217	0xbc75dea9	-0.0150067
218	0xbe0bc0ac	-0.13647717
219	0x3e358d7b	0.17729752
220	0xbe167e17	-0.14696537
221	0xbd80bc61	-0.062859304
222	0xbd5b50e6	-0.053543948
223	0xbd3e5814	-0.046470717
224	0xbcd9f99c	-0.02660828
225	0x3d86e61c	0.06586859
226	0xbd922ac2	-0.07137062
227	0xbe247842	-0.160615
228	0x3df7d8ae	0.12101875
229	0x3c6bd38f	0.014393701
230	0x3dd1871e	0.1023085
231	0x3e0098b4	0.12558252
232	0x3daed3e5	0.085365094
233	0xbc6bf684	-0.014402036
234	0xbc918b49	-0.017766612
235	0xbd8f76a0	-0.07005048
236	0xbda73f85	-0.08166412
237	0x3b792e6f	0.0038022061
238	0x3e0599e2	0.13046983
239	0xb9753a37	-0.00023386707
240	0x3d8729f4	0.06599799
241	0x3ca5f71f	0.020259438
242	0xbdc22ef8	-0.09481615
243	0x3e15ad5a	0.1461691
244	0xbcd7fe12	-0.026366267
245	0xbd9e5440	-0.07730913
246	0xbd0a62c0	-0.03378558
247	0x3d8ee81b	0.06977864
248	0xbd925d98	-0.07146758
249	0xbc520cf6	-0.012820473
250	0xbc13188a	-0.008978019
251	0x3dec7d17	0.115472965
252	0x3dc7ce19	0.09756107
253	0x3cb86216	0.022507709
254	0xbc561380	-0.013066173
255	0x3e027654	0.12740451

classifier.2.bias f4 [84]
0	0xbd0d0625	-0.034429688
1	0x3d825693	0.06364169
2	0xbd8474a9	-0.06467564
3	0xbca5092c	-0.020145975
4	0x3cbf446c	0.023348056
5	0x3dc42ed5	0.09579245
6	0xbd1ca71f	-0.038245317
7	0xbe0d1556	-0.1377767
8	0x3ccb78cc	0.024837874
9	0xbcff1039	-0.031135665
10	0xbdb0a4e3	-0.086252
11	0xbcbb2964	-0.022846885
12	0xbd0a4dd7	-0.03376564
13	0xbd0dcdb7	-0.034620013
14	0x3d2ef0ba	0.042710043
15	0x3d86c45e	0.06580423
16	0x3bf94514	0.0076071117
17	0x3ae04b86	0.0017112351
18	0xbbb45575	-0.0055033513
19	0xbe056fae	-0.13030884
20	0xbde270fb	-0.110567056
21	0xbc23c528	-0.009995736
22	0xbdbf4dc5	-0.09341005
23	0x3df6ea33	0.12056389
24	0x3de433d0	0.11142695
25	0xbdf75549	-0.12076814
26	0xbdda5abc	-0.106618375
27	0x3e0d3ba8	0.13792288
28	0x3c933221	0.01796824
29	0xbdc91c41	-0.09819842
30	0xbd221bac	-0.03957717
31	0xbd8b5a7d	-0.06804369
32	0xbc306738	-0.010766797
33	0xbd209c69	-0.039211664
34	0x3d9bf5bb	0.07615229
35	0xbdad48b0	-0.0846113
36	0x3d4d5d16	0.0501376
37	0x3cdc236a	0.026872355
38	0x3d999f54	0.075010926
39	0x3bd54161	0.006508038
40	0x3d0c0409	0.034183536
41	0x3cc66c6f	0.024221627
42	0xbe11eb61	-0.14249946
43	0x3d576d10	0.052594244
44	0xbc9d64ce	-0.019213106
45	0xbba0a1f1	-0.0049021174
46	0xbca3ded2	-0.02000371
47	0x3c4855ab	0.012227456
48	0xbd34a9ad	-0.044107128
49	0x3da931e3	0.08261468
50	0xbc8d55d0	-0.017252833
51	0xbdfae77a	-0.12251182
52	0x3e11595f	0.14194249
53	0xbd52873e	-0.05139851
54	0x3d89806e	0.06713949
55	0xbd9c6d6f	-0.0763806
56	0x3d0d44fc	0.034489617
57	0xbc040210	-0.008057132
58	0xbb2d96bb	-0.0026487547
59	0xbd466e66	-0.048445128
60	0x3cb98a45	0.02264894
61	0x3d3e4861	0.046455745
62	0x3dcadd27	0.09905463
63	0x3c4d379e	0.012525467
64	0xbd244e37	-0.040113654
65	0x3d3b6836	0.04575368
66	0xbca34af2	-0.019933198
67	0xbd9e26f3	-0.07722273
68	0x3e0725ad	0.13197966
69	0x3d777e44	0.06042315
70	0x3d8814f4	0.066446215
71	0x3dad57f8	0.08464044
72	0x3afb26d9	0.0019161358
73	0xbdd56a71	-0.10420693
74	0xbd3fe758	-0.046851486
75	0x3cef5b67	0.029218389
76	0xbc4c3601	-0.012464047
77	0xbcd15e4f	-0.025557665
78	0xbd8a9a89	-0.067677565
79	0x3cddd533	0.0270792
80	0xbde8e37f	-0.113715164
81	0xbdc1f9a4	-0.09471443
82	0xbd8ff1ad	-0.07028518
83	0xbd4d071e	-0.050055616

classifier.4.weight f4 [10, 84]
0	0xbe18950a	-0.14900604
1	0xbea057b6	-0.31316918
2	0x3e94a9b7	0.29035732
3	0x3c81ba50	0.015835911
4	0xbdf21ee0	-0.11822295
5	0xbe4e55d8	-0.20149934
6	0xbe70c684	-0.23513228
7	0xbe809a73	-0.25117835
8	0xbda1f993	-0.07908931
9	0xbe8de22f	-0.27711627
10	0x3e074288	0.13208973
11	0xbe8044d2	-0.25052506
12	0x3eb7c058	0.35888934
13	0xbec3c858	-0.38238788
14	0xbee60f4a	-0.4493354
15	0x3d99f0e5	0.0751665
16	0xbe4cf204	-0.20014197
17	0x3e6fd028	0.23419249
18	0x3ee7b7b8	0.45257354
19	0xbeb80b84	-0.35946286
20	0x3be21345	0.0068992698
21	0xbd8bd9c4	-0.06828645
22	0x3ec257a9	0.37957504
23	0x3e38fc2c	0.18064946
24	0x3e0680fc	0.13135141
25	0x3d926bc0	0.07149458
26	0xbd9e7935	-0.07737962
27	0x3e3182b9	0.17335023
28	0xbe05a0d4	-0.13049632
29	0xbe541b16	-0.20713457
30	0x3dbcd971	0.09221161
31	0xbebfa77c	-0.37432468
32	0x3de267e7	0.11054974
33	0xbeb46595	-0.3523375
34	0x3eaf8bd7	0.34286377
35	0x3ebd46ce	0.36968082
36	0xbec4fc62	-0.38473803
37	0xbdc637ad	-0.09678588
38	0x3e8eb640	0.2787342
39	0xbe69c3de	-0.22828624
40	0x3ee127b4	0.43975604
41	0x3e4e72d6	0.20160994
42	0x3e6722ad	0.22571822
43	0x3e969e4b	0.29417643
44	0x3efbe2d6	0.491965
45	0xbedf6bb8	-0.4363687
46	0xbe8c66f3	-0.27422294
47	0x3d8b8e02	0.06814195
48	0xbdf510bf	-0.11966085
49	0xbebd5797	-0.36980888
50	0x3e0d951c	0.13826412
51	0xbde3b148	-0.11117798
52	0x3ecd97df	0.4015493
53	0x3d1d69e1	0.038431052
54	0x3d250480	0.040287495
55	0xbde8687f	-0.11348056
56	0xbe769a6d	-0.24082346
57	0xbecd4eb1	-0.400991
58	0xbe6cfa4e	-0.23142359
59	0xbe06b389	-0.13154425
60	0xbeecb597	-0.46232292
61	0xbdacfc84	-0.08446601
62	0xbe2f2897	-0.17105328
63	0x3e85bfe0	0.26122952
64	0x3de0a18e	0.10968314
65	0xbdf6122a	-0.12015183
66	0xbd9fb335	-0.07797853
67	0xbe5a431b	-0.21314661
68	0x3e2ccc83	0.1687489
69	0x3e2ce2bc	0.16883367
70	0xbba65a44	-0.0050766785
71	0x3e1b3cce	0.15159914
72	0xbeaf3897	-0.34222862
73	0xbea9e842	-0.3318501
74	0x3da256dc	0.07926723
75	0xbe3d3d78	-0.1848048
76	0xbe838024	-0.256837
77	0xbc0fc56f	-0.008775099
78	0xbdb6f781	-0.089339264
79	0xbe525f8d	-0.20544262
80	0x3ebd1452	0.36929566
81	0x3e7197f6	0.23593125
82	0xbd762b5a	-0.060099937
83	0x3e0583ce	0.13038561
84	0xbe914b57	-0.28377792
85	0x3da89b33	0.08232727
86	0xbe300774	-0.17190343
87	0xbd9a6649	-0.075390406
88	0xbeb35fad	-0.35033932
89	0xbda2b835	-0.07945291
90	0x3daa7ec9	0.083249636
91	0x3d73c5f3	0.05951495
92	0x3e528b88	0.2056104
93	0x3e67e049	0.22644152
94	0xbe0c88a7	-0.13724004
95	0x3e9f04f9	0.3105848
96	0xbe51684a	-0.2044994
97	0x3e40091b	0.18753473
98	0xbe59a139	-0.21252908
99	0x3e885ed2	0.26634842
100	0x3c1928a6	0.00934807
101	0x3ea6baf0	0.32564497
102	0xbeacfa1d	-0.3378457
103	0xbea95e8b	-0.33079943
104	0x3ecf42b7	0.40480587
105	0xbe3fe211	-0.18738581
106	0x3e626315	0.2210811
107	0xbe11945d	-0.14216752
108	0x3da5f247	0.08102851
109	0xbe034421	-0.12818958
110	0x3e229de0	0.15880537
111	0x3f0539a6	0.5204109
112	0xbd7acacf	-0.06122857
113	0xbe80f8fc	-0.2518996
114	0xbd13d97e	-0.03609609
115	0x3e4411b4	0.19147378
116	0x3ea68996	0.32526845
117	0x3ec62f30	0.38707876
118	0x3ec5a929	0.3860562
119	0xbe850db2	-0.2598701
120	0xbda678a7	-0.08128481
121	0x3e0f39f7	0.13986956
122	0xbecbf4d9	-0.3983524
123	0x3ee1d33c	0.44106472
124	0xbeac6bf4	-0.33676112
125	0xbed1de83	-0.40990075
126	0xbdc0dc4d	-0.09417019
127	0x3e354e99	0.17705764
128	0x3e94cf23	0.29064283
129	0x3eb24b05	0.3482286
130	0x3d34e053	0.044159245
131	0x3e21a6c0	0.15786266
132	0xbde3a3fe	-0.111152634
133	0x3eebf32d	0.46083966
134	0xbdd9e826	-0.10639982
135	0xbe014301	-0.12623216
136	0xbe21a8e4	-0.15787083
137	0x3eff5522	0.4986964
138	0x3eb3184c	0.34979475
139	0xbe594bff	-0.21220396
140	0xbeaa0ea2	-0.3321429
141	0xbe15026e	-0.14551708
142	0x3bc58961	0.0060283397
143	0x3e8b16cb	0.27165827
144	0x3eb4038b	0.35158953
145	0xbd09d1ec	-0.033647463
146	0x3dab53bc	0.083655804
147	0x3d33a614	0.043859556
148	0xbe56ad47	-0.20964538
149	0xbda7b236	-0.08188288
150	0x3e65885e	0.22415301
151	0x3ebf5091	0.37366155
152	0x3ea02533	0.3127838
153	0xbe84a2ec	-0.2590555
154	0x3e7a3747	0.24435149
155	0xbe734ac7	-0.23758994
156	0x3d7dbdef	0.061948713
157	0x3ecc1abe	0.39864153
158	0x3e863e85	0.26219574
159	0x3d04296f	0.032266077
160	0x3d83cd38	0.06435627
161	0xbd95d1c6	-0.07315402
162	0x3eb28fcf	0.34875342
163	0x3e4e3e5b	0.20140974
164	0xbd1cddcf	-0.03829747
165	0xbe8466e3	-0.25859746
166	0xbe92b4ae	-0.28653473
167	0x3e8bc534	0.27298892
168	0xbe4421ae	-0.19153473
169	0xbe7440e6	-0.23852882
170	0x3e2998de	0.1656222
171	0xbe96135d	-0.29311648
172	0x3ecdee10	0.4022069
173	0x3e029ad7	0.12754379
174	0x3e2d6af2	0.16935328
175	0xbe393b38	-0.18088996
176	0xbe1c8072	-0.15283373
177	0xbbc9f5a3	-0.0061633154
178	0x3c708a88	0.014681466
179	0xbd8dfd18	-0.069330394
180	0xbef66acb	-0.48128352
181	0xbe98e888	-0.29864907
182	0xbd73b1b8	-0.059495658
183	0xbde4d093	-0.11172595
184	0x3dc74075	0.09729091
185	0xbdd6588c	-0.10466108
186	0xbdfa67a9	-0.12226803
187	0xbec970b7	-0.39343807
188	0xbd030a0b	-0.031992
189	0x3eb25bfd	0.34835806
190	0x3c222744	0.009897057
191	0xbe48284b	-0.1954662
192	0xbe0a02dc	-0.13477653
193	0x3d847c35	0.06469003
194	0xbdfa7ddd	-0.12231038
195	0x3e774606	0.24147806
196	0x3e9b04cc	0.30277097
197	0x3da4e9bd	0.080523945
198	0x3cbdb596	0.023157876
199	0x3ef0cd97	0.47031853
200	0x3e1a4079	0.15063657
201	0x3e936d5d	0.28794375
202	0x3d9620ef	0.073305
203	0xbec9eea8	-0.39439893
204	0x3e6a81ce	0.22901079
205	0x3eefe8ba	0.46857244
206	0x3e26ac75	0.16276725
207	0xbdfa0a8a	-0.122090414
208	0xbdb875ef	-0.09006869
209	0xbe21d668	-0.15804446
210	0xbe914007	-0.2836916
211	0xbdb1288f	-0.08650314
212	0xbe95b150	-0.2923684
213	0xbe902947	-0.28156492
214	0xbe5084ca	-0.20363155
215	0x3e88e0f1	0.26734117
216	0xbeaab435	-0.33340612
217	0xbe1fbe56	-0.15599951
218	0xbe780686	-0.24221238
219	0xbeb09e96	-0.3449599
220	0x3f105427	0.56378406
221	0xbe80f0bc	-0.25183666
222	0xbd029ecf	-0.031889733
223	0xbe4f90e1	-0.2027011
224	0xbf1ab5a6	-0.60433424
225	0xbe2830eb	-0.1642491
226	0x3ebdbd96	0.37058705
227	0xbe70fe05	-0.23534401
228	0xbee41117	-0.4454429
229	0xbe68b99d	-0.22727056
230	0x3e98abeb	0.29818663
231	0x3dcb2336	0.09918825
232	0xbc9fadb4	-0.019492008
233	0xbe9ba473	-0.30398902
234	0xbe28e9e3	-0.1649547
235	0x3ddb0809	0.10694892
236	0xbd269076	-0.040665112
237	0x3baaf2b0	0.005216919
238	0xbd43d7db	-0.047813278
239	0xbe542b27	-0.20719586
240	0x3d095c15	0.033535082
241	0xbf14531d	-0.5793932
242	0xbe998b82	-0.2998925
243	0xbd1adfd6	-0.037811123
244	0x3ec50765	0.38482204
245	0xbe9e2c4e	-0.30893177
246	0x3cb92316	0.022599738
247	0x3bfad287	0.0076544913
248	0xbdfd7c1d	-0.12377188
249	0x3cf3a0c0	0.029739738
250	0x3e7e9727	0.24862348
251	0xbe7be6d8	-0.24599779
252	0x3b71ee5b	0.0036915753
253	0x3e0073b8	0.12544143
254	0xbd0875cf	-0.033315476
255	0xbe39f71e	-0.18160674

classifier.4.bias f4 [10]
0	0x3b6aec41	0.0035846385
1	0x3c42b41c	0.011883762
2	0x3e887eef	0.26659343
3	0xbda19c62	-0.07891156
4	0xbc6d6324	-0.014488969
5	0x3e020dfb	0.12700646
6	0xbe1bafe8	-0.15203822
7	0x3dc954a3	0.09830596
8	0xbd46193d	-0.048363913
9	0xbd896bb7	-0.06709998
