L18/optional_wgan/gan_mnist_01.pt (torch, 861943 bytes, 7 tensors)

generator.0.weight f4 [128, 100]
000000 74 7b 15 bc 5f c6 98 3e 23 4f 16 3d 77 4b 9b 3e
       -0.009123672 0.29838845 0.036696564 0.30331013
000010 24 3c 4c bc be 52 3a 3e bf 7d 20 be 65 18 29 3d
       -0.0124655105 0.18195626 -0.15672968 0.04128303
000020 f3 d0 2a 3e 0c 32 6b be ee 0a a3 3e 61 c4 c4 3a
       0.1668127 -0.2296831 0.31844276 0.0015012139
000030 bd 4d 17 3e 9e 8c 16 be 90 07 5c 3e 6d 54 0b bd
       0.14775749 -0.14702079 0.2148726 -0.03401606
000040 22 bf ef 3d e0 cb 00 3e e6 ee 95 be 86 d9 80 3c
       0.117063776 0.12577772 -0.29283828 0.015728723
000050 da 8a a4 bc dd 5e 02 3e fc df 98 bd 74 bf c1 3d
       -0.02008574 0.127315 -0.07464597 0.09460345
000060 25 96 6c be f2 b6 09 bc 43 03 0d be d5 01 cd bd
       -0.2310415 -0.008405434 -0.13770775 -0.10010115
000070 a8 7f b5 3d cc a9 dd bd c5 df 1e 3c 7b c8 e3 bd
       0.08862239 -0.10823402 0.0096969055 -0.11122223
000080 c8 68 56 3b 94 f9 c7 3d 0f bc 86 be 02 ca 45 3e
       0.0032716263 0.097644 -0.26315352 0.19315341
000090 d9 4f ee bb 72 c7 94 3e ae 29 fe bd 1a 40 72 be
       -0.007272702 0.29058415 -0.124102935 -0.23657265
0000a0 01 81 f7 3d 81 d8 fb bd e0 92 da 3d 4e ad dc 3e
       0.120851524 -0.12297154 0.106725454 0.4310097
0000b0 51 aa 9b 3d 1a df 32 be 9b 0b 43 3e 62 7f 2f 3c
       0.07600845 -0.17467919 0.19047396 0.010711523
0000c0 ac 54 74 3e a1 ca 0c be a6 3a 31 be 19 4e 25 bc
       0.23860425 -0.13749172 -0.17307529 -0.010089421
0000d0 c1 4f db bc 85 5d 2e 3e 2b 0d 09 3d d4 8c 64 3e
       -0.026771428 0.17027862 0.033459824 0.22319347
0000e0 95 06 78 3d 03 c7 05 be c3 e0 c8 3d 2e b2 b3 be
       0.060553152 -0.13064198 0.09808495 -0.35096878
0000f0 cf 32 ff 3d cd c7 4b be 07 7f 8d 3d 8e d7 44 be
       0.12460863 -0.19900437 0.06908994 -0.19222853
000100 82 74 a7 3d 1c 99 10 be b9 d8 72 3e 10 03 71 be
       0.08176519 -0.14120907 0.23715486 -0.23536325
000110 70 da 5b be 11 42 64 be b7 29 58 3e 9f 94 9f 3e
       -0.21470046 -0.22290827 0.21109663 0.31168076
000120 2b b0 19 3e 62 53 50 be 0a 54 15 be 01 ef 0b be
       0.15008609 -0.20344308 -0.1458284 -0.13665392
000130 b2 9f 20 be 3d e8 38 3c 50 d0 2c 3e c6 36 36 3e
       -0.15685919 0.011285839 0.1687634 0.17794332
000140 ac 9d 0e be cb 5b 09 3c a2 12 1c 3e 9f 19 1c 3c
       -0.13927335 0.008383702 0.15241483 0.009527593
000150 74 30 aa 3d ae 66 03 3d 52 06 ab bd 79 6d 38 be
       0.08310023 0.032080345 -0.08350815 -0.1801051
000160 a9 71 ff bb 8e e3 96 3e 6a 11 b4 3d ec 01 bf 3c
       -0.007795532 0.29470485 0.08792384 0.023316346
000170 8d c0 95 3e 08 93 9d 3e ca 66 ad bd d8 0d 7c 3c
       0.29248467 0.30776238 -0.08466871 0.01538416
000180 e7 54 24 3e f8 8c 61 3d 4f e4 18 be fd 96 99 be
       0.16048013 0.05506608 -0.14930843 -0.29998007
000190 19 71 c6 bd e0 d2 02 bd 92 75 31 be f6 73 2c 3d
       -0.096895404 -0.031939387 -0.17330006 0.042102776
0001a0 00 d0 5b be da f8 b9 bd 4e 0d bd 3d 94 8a 95 be
       -0.21466064 -0.09080668 0.09231053 -0.2920729
0001b0 81 64 88 bd 58 bd 5e be 9f 64 50 3e 23 72 ee bd
       -0.066597946 -0.21751916 0.20350884 -0.116428636
0001c0 c7 6f b0 3e 68 42 ea be 8c db 2d be 17 01 88 be
       0.3446028 -0.4575379 -0.16978282 -0.2656333
0001d0 f2 4a 00 bd bb 43 58 be f1 3e fa bc 3a e4 53 be
       -0.031321473 -0.21119587 -0.03054759 -0.2069253
0001e0 ee 40 03 3e 3e 9b f3 3d 28 8c bb 3d a8 0c d0 be
       0.12817737 0.118948445 0.09157592 -0.40634656
0001f0 58 33 9e be 30 85 76 be ec 84 25 3e 68 ef 78 be
       -0.30898547 -0.24074244 0.16163987 -0.24310076
000200 a9 0e a6 3e 90 fc d7 bd 2b ea 46 3e 91 5e 92 3e
       0.3243306 -0.10546219 0.19425265 0.28587773
000210 f3 ec 91 3d f2 57 ae 3e 42 57 1c be a9 2c ac be
       0.071252726 0.34051472 -0.15267661 -0.33627823
000220 1b 11 a4 bd 6b ed 34 be e2 ac cf 3c 03 44 7c bc
       -0.08011075 -0.17668693 0.025350992 -0.015397075
000230 cc 88 15 3e 1a f7 dd be 35 76 d6 bd 86 8a 2e be
       0.14602965 -0.43352586 -0.10471765 -0.1704503
000240 de 9a 43 3d f4 8d fe bd eb 08 74 3d 9c 07 56 3e
       0.047755115 -0.12429419 0.059578817 0.2090134
000250 21 93 8c 3d 47 96 4d be 00 65 93 bd 92 7f 3f 3e
       0.06864 -0.20076858 -0.071969986 0.18701008
000260 5d 31 64 3d 31 30 d9 be 7e 09 3e ba 7d 51 d7 be
       0.05571114 -0.4241958 -0.0007249339 -0.42054358
000270 87 cf b3 3d 30 7d b1 bd f6 5e f9 3e f5 b2 84 bd
       0.08779817 -0.08666456 0.48705262 -0.06479446
000280 2d f4 64 3e a6 a6 89 3e ab 95 8f be 15 b4 aa be
       0.2235877 0.26884955 -0.28043875 -0.33340517
000290 97 51 45 3e 6b 69 0b bf a2 70 08 be c2 f7 6a 3e
       0.19269405 -0.5445773 -0.13324216 0.22946075
0002a0 06 27 ce bb 35 9e 93 be e1 f4 9a 3c 66 34 41 3e
       -0.006291273 -0.2883164 0.018915595 0.18867645
0002b0 ad 39 63 3e f1 75 78 bc 0e 1f 43 bc 8d af 12 be
       0.2218997 -0.015164838 -0.0119092595 -0.1432478
0002c0 d2 ec 9d be 38 c0 59 3d 21 c9 92 3e 52 3a 93 be
       -0.30844742 0.05316183 0.28669074 -0.28755432
0002d0 db c7 8a 3c 0d 7d 21 3e 0f 69 6c 3e 3f 88 fb 3b
       0.016941002 0.1577036 0.23086952 0.007676154
0002e0 ce 4a 35 3e 20 44 ad 3e 07 ff 79 be 54 ec 82 3d
       0.17704317 0.33841038 -0.24413691 0.06392732
0002f0 82 2b 0b bd 21 53 63 3e c7 b9 e2 bc 76 49 00 be
       -0.03397704 0.2219968 -0.027676476 -0.12528023
000300 f9 8b 1e 3b 9b 86 51 3e d5 4a b0 3d e4 51 27 3d
       0.0024192317 0.20461504 0.08608023 0.04084958
000310 31 c0 24 3e f2 be 4a bd c6 5b d6 bc 53 5c c0 bd
       0.1608894 -0.049498506 -0.026166808 -0.093926094
000320 13 74 44 3c 70 57 6d bd 23 d9 10 3e e9 25 64 3d
       0.011990565 -0.057944715 0.14145331 0.055700216
000330 13 37 cf 3c 74 fa a6 bd 62 13 4b 3c 74 3f 1c be
       0.025294816 -0.08153239 0.012394758 -0.1525858
000340 27 07 10 bd cc 2b a9 3d 6c c1 21 3b 40 94 9e bc
       -0.03516307 0.08260307 0.0024681939 -0.0193578
000350 9e a3 99 bd b4 8f b8 3d 4a 36 61 bd f3 c7 f4 3d
       -0.075019106 0.09011784 -0.054983415 0.119522
000360 6a 16 65 3d d4 1d f3 3c 5f 35 f9 3d c1 d4 97 bd
       0.05592958 0.02967731 0.12168383 -0.074136265
000370 e7 41 ce 3c 41 5a f3 3d 27 27 98 bd de 82 13 be
       0.025177909 0.11882449 -0.07429343 -0.1440539
000380 46 23 1e be 6b 72 ba 3d c2 45 ed 3d e8 7b ee 3d
       -0.15443143 0.09103855 0.11585571 0.11644727
000390 ab fd 18 be d6 dc 78 be 70 13 5a bd 83 ba 12 3e
       -0.14940517 -0.24302992 -0.053241193 0.14328961
0003a0 d4 2d 0f 3e 90 82 15 3d 10 7c 3f 3e a5 97 c7 bd
       0.13982326 0.036501467 0.1869967 -0.09745721
0003b0 32 6f d4 3b f8 6e b2 bd 44 85 4f be 74 43 a7 bd
       0.006482982 -0.08712572 -0.2026568 -0.081671625
0003c0 f4 2d 80 3d 19 11 11 be 07 98 24 bd bf 01 04 be
       0.06258765 -0.14166678 -0.040184047 -0.12891291
0003d0 04 f3 1b 3c b0 db 37 3c 59 00 d5 bd 07 3c 5b 3d
       0.009518389 0.011221811 -0.10400457 0.053524043
0003e0 fa 92 83 bd dd ac 58 3e 45 61 5c bd ce 50 fd bc
       -0.06424518 0.21159692 -0.0538037 -0.03092232
0003f0 1a 3b 1b bb 00 cb 6f bd 9e 12 b9 bd ab 7e eb bd
       -0.002368635 -0.058543205 -0.09036754 -0.114987694

generator.0.bias f4 [128]
000000 2a e4 38 3e 36 1f 80 bd a5 ac 9e 3e be 4e e1 be
       0.18055788 -0.06255953 0.30991092 -0.44005388
000010 63 8e 00 bf c3 e7 d5 3d 7b 42 10 3e 30 e3 6d 3e
       -0.50217265 0.10444596 0.1408786 0.23231196
000020 26 94 f5 be 9d a2 3a bc 5a e1 69 be 73 f4 13 3e
       -0.4796459 -0.011391309 -0.22839871 0.14448719
000030 54 38 83 3e fb 71 67 bd d5 9f 41 3e 05 16 aa 3d
       0.25628912 -0.056505185 0.18908627 0.08304981
000040 42 7d 6a be c9 d3 94 3e 09 8b 7f be 90 ab 53 3e
       -0.22899345 0.2906783 -0.24955381 0.20670915
000050 16 aa 0e bf 13 79 2f be 70 93 9a bd 90 28 aa be
       -0.5572828 -0.1713603 -0.07547653 -0.33234072
000060 1d ed 34 3e e8 95 98 3e 77 68 36 3d 42 50 48 bf
       0.17668577 0.2980187 0.04453322 -0.78247464
000070 ab 61 8f 3e 04 ae 41 3e 04 00 90 be 9f 3f b0 3e
       0.28004202 0.18914038 -0.28125012 0.3442354
000080 ec cb 08 be d8 aa a4 3d 77 1d c2 3e dc a1 97 3d
       -0.1335904 0.08040398 0.37913105 0.07403919
000090 1f b9 1b bf 12 cd 7d bc da 4c 4e 3e 6b eb 8c bd
       -0.6082935 -0.015490787 0.20146504 -0.0688084
0000a0 50 ce 97 bd be 9e c0 be 5c 8b ce 3d 0f 0d e0 bd
       -0.07412398 -0.3762111 0.100851744 -0.10939991
0000b0 25 e6 b5 be 5a aa 5a 3e 09 1a 3a 3d 2b 59 44 3e
       -0.3552715 0.21354046 0.045434985 0.1917464
0000c0 0a d2 1b bf 47 36 8b bf f2 61 27 3d 9a bf 44 be
       -0.6086737 -1.0875939 0.040864892 -0.19213715
0000d0 45 f8 ed be b7 cb 9a bc 5a ba f1 3d ec d9 bf 3e
       -0.46478477 -0.018895967 0.11803122 0.3747095
0000e0 cb b2 a5 bc bd b6 4b 3e 2d e8 38 bb 5f 7e a7 3a
       -0.020226857 0.19893928 -0.002821456 0.001277875
0000f0 4b db 9a 3d 51 9b ca 3b a3 5a 74 3e f8 33 55 be
       0.07561358 0.006183066 0.238627 -0.20820606
000100 62 9a 6a be 7f 81 38 bf 41 ab b1 be 96 7c 53 3e
       -0.22910455 -0.72072595 -0.3470097 0.20652995
000110 22 94 51 3e 67 f5 d4 ba 0a e6 37 3e df 74 92 bd
       0.20466664 -0.0016247452 0.17958847 -0.07151198
000120 11 c5 e5 3d ba 51 1f 3e d3 9b 96 3e 43 25 dd 3e
       0.11219228 0.1555852 0.2941576 0.4319249
000130 83 54 b1 bd 09 f5 58 3e fb b7 86 be 9d 22 86 bd
       -0.086586975 0.21187223 -0.2631224 -0.06549571
000140 17 28 9b be 58 2a aa be f8 7f 0c 3d 3f 47 e6 be
       -0.30304024 -0.3323543 0.034301728 -0.4497623
000150 49 f4 9a be aa 38 14 3e 8c 58 64 be 0d b1 4d 3e
       -0.302645 0.1447474 -0.22299403 0.20087071
000160 a9 9c a6 3d 48 14 40 3e 77 a4 cf bc d2 35 77 3e
       0.08135349 0.18757737 -0.025346978 0.24141625
000170 5f fe 82 3e e5 f9 d3 be d5 e4 70 bd 1a 7b 22 3e
       0.25584695 -0.41401592 -0.05881198 0.15867272
000180 b1 c7 f3 be 0b 93 94 bd 9b 2a e8 be c9 27 b4 bc
       -0.4761329 -0.07254609 -0.45345005 -0.021991627
000190 75 b8 53 3c 97 a1 27 3e ef 27 89 be 1f 4a b5 bd
       0.012922396 0.16370235 -0.2678828 -0.08852028
0001a0 a6 3f 82 bd 46 d9 35 3d 75 57 b7 3e fe a9 36 3e
       -0.06359796 0.04439666 0.35808912 0.17838284
0001b0 93 65 3c bf 76 2a c8 3e 93 5e cb 3e 1c 8f 8f bf
       -0.7359249 0.39094895 0.39720592 -1.1215549
0001c0 1b 14 a9 be 1f 8e 4c be c5 1a 2c bd 24 c6 9a 3e
       -0.33023152 -0.1997609 -0.042017717 0.30229294
0001d0 a1 c8 a4 3c 6d ff 66 3d 82 e0 2f 3e 89 1e 40 3c
       0.020115199 0.056395937 0.17175487 0.01172603
0001e0 19 7b 14 bf bc 8b 56 3d 24 cf e5 3d bb 65 8c 3e
       -0.5800033 0.052379355 0.112211496 0.27421364
0001f0 52 de 3f be 76 31 97 be 25 4f 93 3e 96 5f 1f bd
       -0.18737152 -0.29529923 0.2877132 -0.038909517

generator.3.weight f4 [784, 128]
000000 e2 71 12 be 28 a6 4d bd 28 47 23 be 3e c0 5c be
       -0.14301255 -0.050207287 -0.15945113 -0.2155771
000010 b8 1c 9d bc b1 ff 0d bc fa 30 c2 bd c7 8e 9f bc
       -0.019178733 -0.008666919 -0.09481998 -0.019477261
000020 33 21 71 be df fc 6b bd d8 74 8d be 5d 36 95 3a
       -0.23547821 -0.057614204 -0.27628207 0.0011383999
000030 33 68 c9 bd 5a 04 cc bd b7 85 67 3b e2 49 a5 bd
       -0.098343275 -0.099617675 0.0035327503 -0.08070733
000040 25 97 9c 3c 69 4b f0 bd 90 c7 2b be 8c 95 9e bd
       0.01911504 -0.11733133 -0.16775346 -0.077433676
000050 05 88 bc 3d cd 63 36 be 92 be 26 bd 9c 45 0f be
       0.09205631 -0.17811508 -0.040709086 -0.13991398
000060 9f 12 de bc 10 7a 98 be a3 f1 6e 3d a3 7b 24 be
       -0.027108489 -0.29780626 0.05833591 -0.16062789
000070 76 93 80 bd e0 14 26 bd 8b 06 1b be f8 44 2d be
       -0.06278126 -0.04054725 -0.15139215 -0.1692084
000080 79 0f 99 bd 83 bd a1 3c ac f1 99 bd 12 fe a2 bd
       -0.07473654 0.019743687 -0.075167984 -0.07958616
000090 ef 08 84 be 2c 1c f0 bd 8e 49 1b be ac 5c f6 bd
       -0.25788066 -0.11724123 -0.15164778 -0.120293945
0000a0 d1 22 3e be 1e 97 22 be df 29 89 3d 55 14 12 be
       -0.18567969 -0.15877959 0.066974394 -0.14265569
0000b0 73 6f e0 bd ea 2a 3a be 44 d4 33 be f7 8a c2 bd
       -0.10958757 -0.18180433 -0.17561442 -0.09499162
0000c0 7a 2b 1e be 76 4a ac be 47 2c b2 bc a8 25 8a bd
       -0.15446272 -0.3365056 -0.021749629 -0.067454636
0000d0 61 91 8b bc 7a 4f 13 be 49 f1 17 3d 8c ab 1b be
       -0.017037096 -0.14385787 0.03709534 -0.15202159
0000e0 26 18 f9 bd b3 0e 49 be f6 d0 64 bd 5e f6 29 be
       -0.12162809 -0.19634514 -0.055863343 -0.16597888
0000f0 64 b5 e9 bc 55 a9 0e bd f6 01 ef bd dc 65 93 be
       -0.028528877 -0.034829456 -0.11670296 -0.2878865
000100 bd a8 5c 3d eb f0 92 be 47 2b e7 bd 42 1b 2d be
       0.05387186 -0.2869943 -0.112875514 -0.1690493
000110 2e 9b 11 bc 2f 10 26 be 3e 81 42 3d 2a 6a 99 bd
       -0.008887095 -0.16217111 0.047486536 -0.07490952
000120 0e 9d 41 bc 65 29 dd bd 04 db 3c bd 64 0e 47 be
       -0.01181723 -0.10798911 -0.046107307 -0.19439083
000130 49 8b 32 3d 8c 4f 10 be a5 db 22 bd 9a e2 c0 bd
       0.043589864 -0.14092845 -0.03976025 -0.09418221
000140 28 41 86 bd 56 54 65 be be 13 56 3d 36 c1 58 be
       -0.06555396 -0.22395453 0.05226492 -0.21167454
000150 75 e0 27 be 41 98 29 be 7c ea 22 be 6a 3e 8f bc
       -0.16394217 -0.16561987 -0.15909761 -0.017485816
000160 3b 7a 28 3e 0a be 37 be d1 4e ea bc 42 03 87 bd
       0.16452877 -0.17943588 -0.028602036 -0.06592418
000170 1f 51 8a bb 96 6e c8 3b 8c fc 12 be f1 c7 47 be
       -0.004221096 0.0061166985 -0.14354151 -0.19509865
000180 45 07 35 be 7d a6 9d 3d 4b c8 ba bd 2b d4 ed bd
       -0.17678554 0.07697771 -0.09120234 -0.116127335
000190 9e ad 02 be a1 29 e1 3d 79 97 ea bd e7 ce 32 39
       -0.12761542 0.10994268 -0.11454672 0.0001705248
0001a0 83 bd 85 bd ef 44 9e bd 88 0e 31 be ff 5e 2b bd
       -0.06530287 -0.07727992 -0.172907 -0.041838642
0001b0 e1 a4 2e be ee e3 c0 bc 7c 4e 79 bd 20 83 9b be
       -0.17055084 -0.023546185 -0.060865864 -0.30373478
0001c0 7a 50 f9 bd b1 e4 fb bd f8 94 2d be 8d 2e ee bd
       -0.12173553 -0.12299479 -0.16951358 -0.116299726
0001d0 a7 39 07 3c 7d 8c 31 3d 89 42 8b 3a 7d 20 7b be
       0.0082534915 0.04334687 0.0010624687 -0.24524112
0001e0 7f 98 fb bd 2b d7 fc 3b 1b c2 d9 bd b2 0c c5 bd
       -0.12284946 0.0077160797 -0.10632726 -0.09621562
0001f0 b7 8d 2a be c5 9e 66 bd f4 ef 9d bd a1 17 d0 bd
       -0.16655622 -0.05630376 -0.07711783 -0.10160757
000200 28 80 cb bd db 67 80 be 3f 06 20 be b7 5f d6 bc
       -0.09936553 -0.25079235 -0.15627383 -0.026168687
000210 b7 12 e3 3d a7 53 fc bc 13 35 06 3e ba 7d 09 bd
       0.11087554 -0.030801607 0.13106184 -0.033567168
000220 8b d3 28 be c2 d5 fd bd 8f e3 85 be 83 66 cd bd
       -0.16486947 -0.12394287 -0.26150176 -0.10029318
000230 2c 4e b8 bd fe 2c 1a bc 7d 41 d5 bd 5b c9 30 be
       -0.08999285 -0.009410141 -0.104128815 -0.17264311
000240 ca 82 ae bd b4 e8 4a be 96 11 1c be c2 e2 4a bc
       -0.0852104 -0.19815332 -0.15241084 -0.012383165
000250 f1 57 ac bd fc 93 f9 bd 8d ef 0f be cd dd 57 be
       -0.08415211 -0.12186429 -0.14056225 -0.21080704
000260 8c 66 f8 bd f6 77 66 be e1 af 92 bd 37 74 17 be
       -0.12128934 -0.22506699 -0.071624525 -0.14790426
000270 0d 86 c2 bc f1 6f 89 be 73 56 19 be 50 f2 39 bc
       -0.023745561 -0.26843217 -0.14974384 -0.011349276
000280 a6 9c 9b 3d 10 02 8a bb 2c 25 6f be 1f c2 4f 3e
       0.07598238 -0.0042116717 -0.23354024 0.20288895
000290 7b 8d b4 be 18 33 91 be d5 18 57 be 4d 9d ee bd
       -0.3526419 -0.28359294 -0.21005566 -0.116510965
0002a0 50 d0 bc bd 01 06 20 be 4b 8e 0d be 22 79 fa bd
       -0.0921942 -0.1562729 -0.13823812 -0.122301355
0002b0 9d ae 31 be bd ea 02 be c1 a6 69 3b 06 6b f1 bd
       -0.17351766 -0.12784858 0.0035652372 -0.11787991
0002c0 a7 a4 c4 bc 68 22 ba bd 98 1c f8 bd 02 c7 30 be
       -0.024004294 -0.09088594 -0.12114829 -0.17263415
0002d0 1c 2e 1b 3d f1 e6 43 be 70 c4 0e bd 8a 5b 2f be
       0.03788577 -0.19131066 -0.034855306 -0.17124763
0002e0 be d8 3c 3c 93 90 3c be 71 46 54 be b6 ec 50 be
       0.011526285 -0.18414526 -0.20729996 -0.20402798
0002f0 59 e0 48 bc 5d 7f 1f be 92 28 4e be 5f b1 5d be
       -0.01226052 -0.15575929 -0.20132664 -0.21649693
000300 65 fd ca bc 87 d3 59 bc 34 29 4d bd ef 0d 17 be
       -0.024779031 -0.013295061 -0.050088122 -0.14751409
000310 43 d9 8f be 87 85 ae bd 9c bb 00 3e 5a fc fb bd
       -0.28095445 -0.08521562 0.12571567 -0.123039916
000320 ca 44 da 3d 5e bc bc bc 32 45 24 be 1d 3e 04 be
       0.10657652 -0.02303904 -0.16042021 -0.1291432
000330 a4 62 40 bd c1 35 10 3d bb dc 23 be 8b c4 04 3d
       -0.04696907 0.035207514 -0.1600217 0.032414
000340 97 70 70 bd b0 13 b6 be b6 c9 a6 bc a8 b6 84 be
       -0.058701124 -0.35561895 -0.020359855 -0.25920606
000350 4d 64 8e bd f4 11 ac 3a 65 11 67 3d d7 b9 b8 bd
       -0.069527246 0.0013127909 0.056413073 -0.09019821
000360 9a 8c 83 3d 8d c8 1b be 36 f1 63 bd 33 b5 95 bd
       0.06423302 -0.15213223 -0.05564996 -0.07309952
000370 01 80 d8 bd 38 46 9d bd 99 ff bd bd a6 ed 93 be
       -0.1057129 -0.07679409 -0.09277267 -0.2889225
000380 a2 87 fa bc 9c b5 86 bc ed 43 74 be 25 60 98 bd
       -0.030582253 -0.01644402 -0.23854037 -0.07440213
000390 67 44 b4 bd 31 15 87 3d bc 1f 34 be 69 8b 9c 3d
       -0.08802109 0.06595839 -0.1759023 0.07643778
0003a0 9a ef 03 be 2a 84 28 be 92 ab 42 be 4b ef 57 3a
       -0.1288437 -0.16456667 -0.19010761 0.00082372566
0003b0 3d e9 0b be ed a8 08 3d 8e 6a c2 bd 03 97 50 be
       -0.13663192 0.033364225 -0.0949298 -0.20370106
0003c0 6d 80 c6 bd 49 6c 2b be 8e 66 20 be 36 6f a4 bd
       -0.09692464 -0.16740526 -0.15664122 -0.08029024
0003d0 5e c4 33 be 27 23 4b bd 6c 63 a7 bd 0f a3 2b be
       -0.17555377 -0.04959407 -0.0817326 -0.1676142
0003e0 b5 ed 9c bd cf 3d be bc 63 b0 e2 bd 86 a4 b0 bd
       -0.076625265 -0.023222832 -0.11068799 -0.0862513
0003f0 76 d8 1b be 1e 2d ba 3d 74 01 90 be 1f f6 d2 bd
       -0.15219292 0.09090637 -0.2812611 -0.1030085

generator.3.bias f4 [784]
000000 80 c2 0b be 2a 9e 57 be 5c 11 2d be 3d 87 de bd
       -0.13648415 -0.21056429 -0.16901153 -0.108656384
000010 3a 73 00 be 15 ee cb bd 4e fc 85 bd 7a 79 a0 be
       -0.12543955 -0.0995752 -0.06542264 -0.3134268
000020 73 cf 4b be 38 56 99 bd b2 06 52 be b9 50 83 be
       -0.19903354 -0.07487148 -0.20510367 -0.25647524
000030 2d b1 a5 be 09 e3 4b be 95 59 0b be b9 80 e2 be
       -0.32361737 -0.19910826 -0.13608392 -0.44238833
000040 a7 95 36 bd c9 a3 af bc 2b b8 5b bc 02 e7 1f be
       -0.044576313 -0.021440404 -0.013410608 -0.15615466
000050 e9 d4 96 be 76 70 82 bd a3 2a 01 be ee f8 43 be
       -0.29459313 -0.063691065 -0.12613921 -0.19137928
000060 78 52 7a be 33 6d f4 bd 13 35 05 be 52 1f dc bd
       -0.24445522 -0.119348906 -0.13008527 -0.107481614
000070 87 73 bd bd c2 ed 52 be dc ee bd bd fd f4 bd bd
       -0.09250551 -0.2059851 -0.092740744 -0.092752434
000080 1f ad 93 bd 96 c7 ca be 04 97 a1 be 67 49 3c be
       -0.072107546 -0.39605397 -0.31560528 -0.18387376
000090 51 e3 1f be 76 a1 4c be f3 d0 15 be 53 6f bb bd
       -0.15614058 -0.19983467 -0.14630489 -0.09152093
0000a0 69 3b 09 be b2 da 7c be e1 8a c9 bd a6 d5 e2 bd
       -0.1340157 -0.246928 -0.09840942 -0.110759065
0000b0 62 00 1f be 82 28 33 be 08 f7 00 be 88 27 f8 bd
       -0.1552749 -0.17495921 -0.12594235 -0.12116915
0000c0 e6 ac 09 be c5 88 7e bd 16 94 05 bd e8 c1 8c be
       -0.13444862 -0.062142152 -0.03261193 -0.2749169
0000d0 70 f6 60 be 4b 6c 8f be 7e ec 1b be 72 85 a3 bd
       -0.21969008 -0.28012308 -0.15226933 -0.07984437
0000e0 9c 8f 5f be 93 6a 89 be 92 85 50 be 08 67 2c be
       -0.21832126 -0.26839122 -0.20363453 -0.16836178
0000f0 71 c5 ff bd ec c3 97 be 0b 53 00 be 81 dc 99 be
       -0.12488831 -0.29641664 -0.12531678 -0.30051044
000100 a6 40 b0 bd fc bd 27 be 05 f8 35 be 03 36 8c be
       -0.08606081 -0.16381067 -0.17770393 -0.27384958
000110 08 ba 38 be 71 69 66 be f4 69 68 be 02 1a 55 be
       -0.18039715 -0.2250116 -0.22696668 -0.20810702
000120 de 65 0e be f2 8b 56 be 08 35 66 be ad f0 41 be
       -0.13906047 -0.20951822 -0.22481167 -0.18939467
000130 bd 45 64 be 55 1d 84 be 1f 89 11 be 98 ca 66 be
       -0.22292228 -0.2580363 -0.14212464 -0.22538221
000140 cb 4d 61 be fc 76 4a be 12 6b d4 be 63 b4 33 be
       -0.22002332 -0.19771951 -0.41487938 -0.17549281
000150 0d a7 91 be 89 bb d9 be 80 38 3c be 1b e7 6d be
       -0.28447762 -0.4252589 -0.18380928 -0.23232691
000160 be ec 00 be b1 94 f2 bd 9c a6 1e be 64 73 05 be
       -0.1259031 -0.11844767 -0.15493244 -0.130323
000170 8f 48 1c be d0 c4 52 be 43 17 08 be 40 20 7e be
       -0.15262054 -0.2058289 -0.13290124 -0.2481699
000180 54 1b 1b be 69 57 a5 bd f7 07 e0 bd f8 03 ce bd
       -0.15147144 -0.08073313 -0.10939019 -0.10059351
000190 b8 f8 3d be e8 c3 83 bd 25 e8 62 be f9 e5 1d be
       -0.1855191 -0.064338505 -0.22158869 -0.15419759
0001a0 d0 10 62 be ad 98 1f be 89 aa 88 be 88 be 1f be
       -0.22076726 -0.15585585 -0.26692608 -0.15600026
0001b0 fd c0 26 be a8 71 79 be 08 0f 88 be 72 32 2c be
       -0.16284557 -0.24359763 -0.26573968 -0.16816118
0001c0 ca 77 18 be 0f 92 4e be 38 ec 4b be d7 b3 49 be
       -0.14889446 -0.20172904 -0.19914329 -0.1969751
0001d0 ae 05 4d be f2 14 37 be 08 60 05 be 1c a6 5e be
       -0.20021698 -0.17879084 -0.13024914 -0.21743053
0001e0 4f ae b6 bd 92 03 4b be cf b5 07 be dd e7 3b be
       -0.089199655 -0.1982558 -0.13252948 -0.18350168
0001f0 95 60 29 be ad ab 53 be 97 df 83 be ad 40 4a be
       -0.1654075 -0.20670958 -0.25756523 -0.19751234
000200 33 da 5d bd 29 5a 01 be 73 2f 6b be 78 27 43 be
       -0.05416317 -0.1263205 -0.22967319 -0.19058025
000210 08 97 51 be 67 bb 3e be a3 eb 59 be 11 17 d6 bd
       -0.2046777 -0.18626176 -0.21281295 -0.10453618
000220 f9 39 26 be a1 91 4c bd 60 5a 63 be 9e 78 52 be
       -0.16233052 -0.04994357 -0.22202444 -0.20553824
000230 12 0e 00 be e0 d8 f1 bd 0f 12 30 be 03 c3 1c be
       -0.12505367 -0.11808944 -0.17194389 -0.15308766
000240 fe ba 0e be cc e2 ef bd 5e c0 4b be 52 51 c4 bd
       -0.1393852 -0.1171318 -0.19897601 -0.09585823
000250 e0 68 14 be 6b 82 27 be 8f e7 aa bd 62 8c b1 bd
       -0.14493132 -0.16358344 -0.083449475 -0.08669354
000260 38 52 da bd df 47 c8 bd 66 77 a0 bd 88 b8 8d bd
       -0.10660213 -0.09779333 -0.078352734 -0.06919962
000270 99 67 f2 bd c9 8c a5 bd a0 67 ab bd 92 ad d1 bd
       -0.11836166 -0.08083493 -0.08369374 -0.10238184
000280 c9 1d 83 be 2c 58 24 be 33 ac 73 be f0 1e 35 be
       -0.25608662 -0.1604926 -0.23796158 -0.17687583
000290 76 90 bc bd 2e 3c 0d be 16 f0 1f be 03 18 35 bd
       -0.09207241 -0.13792488 -0.1561893 -0.044212352
0002a0 ab c5 69 be 4a 4b 1a be 71 d2 10 be 49 48 fd bd
       -0.2282931 -0.15067783 -0.14142777 -0.12367303
0002b0 6e 41 e0 bd 16 23 93 bd 6c 3e 17 be 2b 8d 32 be
       -0.1094998 -0.071844265 -0.14769906 -0.17436664
0002c0 e0 72 6d bd 09 81 4e bc 4c a6 5f bd ef e8 fa bd
       -0.05797088 -0.012604007 -0.054601952 -0.1225146
0002d0 40 58 16 be 24 8e f0 bd ff 07 95 3d 9f 82 e5 3d
       -0.14682102 -0.11745861 0.07276916 0.112065546
0002e0 97 d4 41 3b f2 40 b1 bd f8 35 01 be 02 24 8f bd
       0.0029576176 -0.086549655 -0.12618244 -0.0698929
0002f0 dd e5 11 be 6f 1c af bd 77 63 0a be 6f 43 74 be
       -0.14247842 -0.08550345 -0.13514505 -0.23853849
000300 d5 c1 79 bd 10 b8 0e be 89 8e 0b be ff d6 8c be
       -0.06097587 -0.13937402 -0.13628592 -0.2750778
000310 a9 44 0f be 0a e1 15 be 98 4d 5d be 56 5b e9 bd
       -0.13991036 -0.14636627 -0.21611631 -0.11394374
000320 65 de af bd 66 4c 21 bd 6a 23 69 bd 09 a7 bc bd
       -0.0858734 -0.0393795 -0.05691854 -0.09211547
000330 e8 39 e7 bd f5 92 2f be 1e 7d fe bd 9e 66 1b bd
       -0.112903416 -0.17145903 -0.12426208 -0.03793966
000340 78 73 40 bd 97 5a eb bc fe d9 cd 3d 32 dc ad 3d
       -0.04698512 -0.02872972 0.10051344 0.084892645
000350 b8 fa e7 3c 1c 1e e0 bd 4b 2a 3d be a7 9e d9 bd
       0.028317794 -0.10943243 -0.18473165 -0.10625964
000360 87 7a 39 bd b0 53 8c bd 61 e1 26 be 35 93 be bd
       -0.045282867 -0.068518996 -0.16296913 -0.09305421
000370 0d 6f df bd 86 92 17 be 26 c1 f2 bd 2c af 34 be
       -0.10909853 -0.14801988 -0.118532464 -0.17644948
000380 0f 99 86 be e1 af 79 bd 27 37 c8 bd 96 af 4c be
       -0.2628865 -0.060958747 -0.097761445 -0.19988856
000390 3a 7b 50 be 03 d2 6e 3c fb f5 de bc b9 aa 22 be
       -0.20359507 0.014576438 -0.027216902 -0.15885438
0003a0 15 b4 65 be 40 b5 0b be 1b 62 8b bd 8f fc 95 bd
       -0.22431977 -0.1364336 -0.068058215 -0.07323562
0003b0 bb 5d 03 3c 48 e3 0f bd 70 b4 93 3d 07 51 d4 3c
       0.008017953 -0.03512886 0.0721215 0.025917543
0003c0 87 69 9b bd 77 69 bb bd 3e 72 ec bd 74 79 22 be
       -0.07588487 -0.09150975 -0.115452275 -0.15866643
0003d0 d2 2f ce bc 38 47 cc bd 45 bb b3 bd 4f 03 80 bd
       -0.025169287 -0.099745214 -0.08775953 -0.06250631
0003e0 5b 70 98 3c 91 12 58 be bf 3e 76 be 5f d2 fb bd
       0.018608263 -0.21100833 -0.24047373 -0.122959845
0003f0 83 97 49 be 79 85 b2 bd 72 48 86 be 9e b2 52 be
       -0.19686703 -0.08716864 -0.26227146 -0.2057595

discriminator.1.weight f4 [128, 784]
000000 22 3c 97 39 3f 64 6f bc 9d 1c 82 bc 77 cd 24 bc
       0.00028845767 -0.014611303 -0.015882785 -0.010058752
000010 b1 21 b1 bc 6f 6d 47 3c b5 56 c7 bb d0 81 a1 bd
       -0.02162251 0.012172087 -0.0060833343 -0.07886088
000020 7f 48 ad 3b 6a 6d b8 ba c8 0c 7f bb 91 a4 8d bb
       0.005288183 -0.0014070694 -0.003891753 -0.0043225964
000030 e9 ea 04 bd 71 a5 2d bc 0b 53 30 bc 34 90 2e bd
       -0.03245059 -0.010598526 -0.0107619865 -0.04261799
000040 41 83 03 3c 45 e5 83 bb 48 2f 0f bc c1 88 16 bc
       0.008026899 -0.004025134 -0.0087393 -0.009187878
000050 d1 14 8c bd d6 e6 39 bb ab 09 5b bc 46 14 68 bc
       -0.06839908 -0.0028366349 -0.013369004 -0.01416499
000060 5a cb d6 bd 9a 5f 45 3a ba 55 b5 bc 28 64 d3 3b
       -0.10488005 0.00075291994 -0.022135604 0.0064511485
000070 74 6a be 3c a9 50 f9 3a 80 0e 94 3c ff 3e 56 bb
       0.02324412 0.0019021231 0.01807332 -0.0032691357
000080 4d 89 8a bc f4 a6 b4 bd 76 89 15 bd 66 b9 88 bc
       -0.016911173 -0.08820906 -0.036508046 -0.016689967
000090 4d 00 ba 3b a0 1c 81 3b 00 7b 3f 3a 34 0e f7 3b
       0.0056763054 0.00394018 0.00073044 0.007539535
0000a0 1f 4e 56 3b 2e 55 3e bc 2b 50 8c bb 13 9d 1b bc
       0.0032700372 -0.011616988 -0.0042820177 -0.009497899
0000b0 c9 3e 8a bb 0b c1 99 3b f6 87 a6 bc 6a c8 7a 3a
       -0.0042189104 0.004692202 -0.020328503 0.0009566607
0000c0 a6 97 3b 3c 48 26 d3 bb d9 61 15 bc 7b 33 ed bb
       0.01144973 -0.0064437725 -0.009117567 -0.007238803
0000d0 38 1d 44 bc 8e 70 a6 bc 20 9d 20 bc 70 ef a4 bc
       -0.011969857 -0.020317342 -0.0098030865 -0.020133704
0000e0 d6 33 2c 3c 84 48 37 bc 00 41 17 bb e8 96 1d bc
       0.0105104055 -0.011186723 -0.0023079515 -0.009618498
0000f0 10 40 7f 3c 22 ab 42 bd 7a 0c 01 3c 14 d3 aa bd
       0.0155792385 -0.047526486 0.00787651 -0.08341041
000100 62 f9 88 bc fd a9 98 bc 6e 73 6d bb 80 87 a0 bc
       -0.016720477 -0.018635744 -0.0036232132 -0.019595861
000110 24 d1 a4 bc 16 e7 2f b9 6f 52 ef bc c0 96 19 bd
       -0.020119257 -0.00016775387 -0.029214112 -0.037497282
000120 d9 65 68 bd 85 a0 53 bd 6d 0f 1c bd bf 2f 30 bd
       -0.056737754 -0.051666755 -0.03810065 -0.043014284
000130 8d 5e 7f bc bf 98 71 bc 20 c2 fe b9 58 bc 51 bc
       -0.0155865075 -0.01474589 -0.0004859129 -0.012801252
000140 b6 f7 40 bd 58 61 83 bc 52 de e2 bc 5b f7 6a bb
       -0.047111236 -0.016037628 -0.027693901 -0.0035853002
000150 7d 53 10 bc ac bb 9e bc bd e0 f8 bc 0e b8 8a bd
       -0.008808968 -0.019376598 -0.030380601 -0.06773387
000160 73 30 06 3b 1a 5a b9 bb e7 f7 dc bb ba 63 e2 bc
       0.0020475655 -0.005656493 -0.0067434194 -0.027635444
000170 e9 66 eb bb 4b e3 90 bc 59 9a 82 bc d2 27 61 bc
       -0.0071838987 -0.017686507 -0.01594274 -0.013742404
000180 93 b2 fb bc fb 62 1f bd d6 8b 65 bd bd 71 86 bd
       -0.0307248 -0.038912755 -0.05604156 -0.065646626
000190 61 67 af bd 6d 97 a4 bd 8c e6 c2 bd db c6 87 bd
       -0.0856464 -0.08036695 -0.095166296 -0.066297255
0001a0 f0 8d 3b bd e5 c9 ec bc 90 c6 c3 bc c9 ea db bc
       -0.04578966 -0.028904865 -0.023898393 -0.026845353
0001b0 1f 6c 0f bb dd 49 07 bb 52 5e 7c bc 8b 52 ba bc
       -0.0021884514 -0.0020643391 -0.015403347 -0.022744438
0001c0 de d5 42 bc 6a 6f ee bc f7 1c b3 bc ef 58 3e bc
       -0.01189181 -0.02910586 -0.021864397 -0.011617883
0001d0 84 7b 6e 3b 8c fa 1a 3c 0c b0 d4 3b d8 75 91 3b
       0.003638954 0.009459149 0.006490713 0.004439097
0001e0 03 b0 31 bc 57 40 cb bb ae 0c 9a 3c e9 cf 4e 3b
       -0.010845187 -0.0062027383 0.018804874 0.003155703
0001f0 b2 57 6c bb 21 9c 4c bd 3b 0e 3d bd 40 0f 42 bd
       -0.0036063013 -0.049953584 -0.04615615 -0.047377825
000200 16 46 f6 bc 59 0d 18 bd e5 b0 d9 bc 57 e0 a3 bc
       -0.030062716 -0.037122104 -0.026573608 -0.020004435
000210 03 d2 4a bd f0 d0 7d bd 73 9d ee bb ca 50 ba bc
       -0.04951669 -0.061966836 -0.007281953 -0.022743601
000220 f8 ea 5e bc 38 e7 8d bc 7f a5 36 bc ed a7 a1 bc
       -0.013605826 -0.017322168 -0.011147856 -0.019733394
000230 53 84 67 bb af a2 7b 3c e8 4e 52 bc 1f 75 24 bc
       -0.0035326674 0.015358611 -0.0128361955 -0.0100376895
000240 37 07 f8 ba 91 74 d2 ba b0 ad 56 ba b6 fe 93 bc
       -0.0018923049 -0.0016056468 -0.00081893336 -0.018065792
000250 52 af 92 bc d1 af e8 bc d4 94 bc bc 82 61 42 bb
       -0.017905865 -0.028404148 -0.023020186 -0.002966017
000260 21 52 de 3b fb 69 d7 bc 2c 06 c4 bc 43 c8 0a bd
       0.006784693 -0.026295653 -0.023928724 -0.03388239
000270 ea 24 d5 bc e7 14 7b 3c 9b 32 24 3c a2 42 97 39
       -0.026018579 0.015324808 0.010021831 0.0002885061
000280 b0 e4 7a bd 70 8c 75 bd 60 ad 47 bc 5d bc 8a 3b
       -0.06125325 -0.059948385 -0.012187332 0.0042338804
000290 d6 83 35 bb 80 66 da bc 54 95 47 3c ae c9 08 bd
       -0.0027696989 -0.026660204 0.012181599 -0.03339546
0002a0 96 d1 09 bc 87 5e a7 bb 66 2f 4a bc d5 fe 7b bb
       -0.008411786 -0.005107704 -0.012340402 -0.0038451452
0002b0 85 dc 8b bb 16 c1 a1 3b 0c 04 8d bc 0e aa 09 bc
       -0.0042682313 0.0049363477 -0.017213844 -0.008402361
0002c0 66 4d 16 bd 19 f8 9d bc 4a f8 fc bc 5c ab 0d bd
       -0.036694907 -0.019283341 -0.030880112 -0.03458725
0002d0 f7 3d a3 ba c2 7d b8 ba f5 86 05 3d 7e de 4c 3d
       -0.001245438 -0.0014075565 0.03259941 0.050016873
0002e0 f9 4f 9d 3c 94 5f 33 3d 82 98 cc 3c 40 a1 a1 3b
       0.019203173 0.043792322 0.024975065 0.0049325526
0002f0 78 58 b3 bb e3 1f fb bc bb 7b 26 bc 4e a4 8a bc
       -0.005473193 -0.030654853 -0.010161336 -0.01692405
000300 33 32 34 bc 89 7a 68 bc 65 07 1f bc cc 3b 0c bc
       -0.010998297 -0.014189371 -0.009706353 -0.008559179
000310 79 2d 36 bc ba 8b 1c bc 69 22 a7 3a f3 d8 85 bc
       -0.01111924 -0.009554798 0.0012751344 -0.016338801
000320 bb c7 85 3c 50 4f 9b 3c ac d1 04 bb ab a5 b4 bc
       0.01633059 0.018958718 -0.0020266576 -0.022051653
000330 89 c6 5b bd e3 4a 5c bc 50 61 9b bb 9d 29 8a bc
       -0.053656135 -0.013445589 -0.004741825 -0.016865546
000340 6e 59 c6 bc 77 cb 55 bd 9f ad 94 bc 0d 7b 36 bc
       -0.024212565 -0.052195992 -0.018149195 -0.011137736
000350 14 0e da 3c 0d 6b e3 3c b5 c0 d9 3c 78 32 57 bb
       0.026618041 0.027761007 0.026581148 -0.0032836478
000360 5d 8c 02 3a 20 22 48 3b 18 08 97 bc a5 85 15 bc
       0.0004980022 0.0030537918 -0.018436477 -0.009126102
000370 b9 7c 72 bb 51 0d ad bc 57 88 b7 bc 0a 1d 0e bb
       -0.003700061 -0.021124514 -0.02240388 -0.002168479
000380 11 12 a3 bb 0b c5 a6 3c 84 46 14 bc 0c 18 32 bb
       -0.004976519 0.02035763 -0.009050015 -0.0027174978
000390 f8 4d d4 3b 81 b8 f6 bb 47 58 ff bc c4 76 be bb
       0.006479021 -0.007529319 -0.031170024 -0.005812498
0003a0 70 d3 1b 3c 53 9b 90 bc 4d 2b 65 bc 06 a9 f9 bc
       0.00951086 -0.01765219 -0.0139873745 -0.030476104
0003b0 a1 d8 5c 3c 61 a1 3f bc 6e 37 d2 bc af 5b c8 bc
       0.013479383 -0.011696191 -0.025661197 -0.02445778
0003c0 31 76 c8 bb db ae 06 3d 86 33 ae 3c e3 81 76 bb
       -0.006117605 0.0328816 0.021264803 -0.003761404
0003d0 2c 1a d6 3b bb e9 df 3c 25 2b f3 3a b2 f2 8b bc
       0.0065338816 0.027333131 0.0018552287 -0.0170835
0003e0 a9 0a 23 bd 15 8d ff bc 2b c7 2f bc 80 4b 13 bb
       -0.03980509 -0.031195203 -0.010728638 -0.0022475421
0003f0 45 cd 20 bb a0 1b 38 bc fd 9e 87 bc db ab 36 3c
       -0.0024536413 -0.011237055 -0.016555304 0.011149372

discriminator.1.bias f4 [128]
000000 5a 5a 90 3d ad 51 09 3d 3f 65 07 bc 4a 26 fc 3c
       0.07048483 0.033525158 -0.008263885 0.030779976
000010 af 75 0e 3e 99 be e3 bc d5 4e 61 bb f8 ef 0b bd
       0.1391208 -0.027800845 -0.0034379263 -0.0341644
000020 11 97 ce 3b 03 82 e5 3c ab d3 a9 bd 8c 74 20 3d
       0.0063046296 0.028016096 -0.082923256 0.039173648
000030 73 81 f4 3d be 12 69 bd 24 c3 23 bc 45 fd 19 bd
       0.11938753 -0.05690264 -0.009995256 -0.037595052
000040 16 39 0a 3d cc e9 97 3d 51 61 67 bc 3c 68 96 bd
       0.033745848 0.0741764 -0.014122323 -0.073441
000050 d6 ee a8 3d 9e c4 66 bc 85 74 29 bd 0a 4b 08 bd
       0.08248679 -0.014084963 -0.041370887 -0.033274688
000060 aa 25 42 bc af 07 7a bc 01 cc fc bb 90 53 38 bd
       -0.0118498 -0.015260621 -0.007714749 -0.045001566
000070 83 60 c2 3d c9 2c 8a bc a8 c4 ac bc 98 71 23 3b
       0.094910644 -0.016867058 -0.021089867 0.0024939533
000080 1d 73 3a 3d 09 c0 b7 3c d8 c8 30 3d 09 bf c7 bb
       0.045519937 0.022430437 0.04316029 -0.006095771
000090 56 ba e3 3c 3d 58 10 3d 0d bf 79 3c 55 c7 86 3d
       0.027798813 0.0352404 0.015243304 0.06580988
0000a0 5d b9 e3 3c d1 5d bb 3c 01 79 8d bb fb 19 df 3c
       0.027798349 0.022871884 -0.0043174033 0.027234068
0000b0 c9 84 a3 bd c2 cd 25 3e d3 96 42 bc 8b 63 43 bd
       -0.07984311 0.16191772 -0.01187678 -0.047702353
0000c0 15 ee b8 bc ae 8f 1f 3d 99 c2 00 bd e1 d3 7a 3d
       -0.022574464 0.038955383 -0.031435583 0.06123722
0000d0 59 7b d8 bc 9d 66 db 3d 7c e2 87 3d 6d 74 1a 3d
       -0.026426004 0.10712931 0.06634995 0.03770869
0000e0 4e b0 8a bc 01 04 4b bd 6e 6f a8 3d 22 11 39 bd
       -0.016929772 -0.049564365 0.082243785 -0.045182355
0000f0 65 c8 7f 3c d7 70 f6 3d e9 4a 03 3c b9 d0 32 bd
       0.015611743 0.12033241 0.008013465 -0.043656085
000100 67 c9 02 3d 30 0b 28 bd 26 12 8a bd 6d ee d0 3c
       0.031930353 -0.041026294 -0.06741743 0.025504315
000110 99 53 08 bb 2b 76 5e bc 16 5f 63 3d 08 3b bf 3d
       -0.0020801781 -0.013577978 0.055510603 0.09337431
000120 50 bb 07 3d 17 95 4d 3d 06 d7 3c 3d bd 88 91 bd
       0.03313762 0.05019101 0.0461035 -0.07106159
000130 05 a5 9b bd 30 9c 40 bc ea 22 bb bc b2 4d 26 bd
       -0.07599834 -0.011755988 -0.022843797 -0.04060144
000140 0e bd bd 3c 25 bb 7d bc 3e 08 c5 3c 6c 89 2b 3d
       0.023161437 -0.015486513 0.024051782 0.041879103
000150 71 31 b6 3d f9 fb 94 3c 7c be 15 3d 01 fe 38 3d
       0.08896149 0.018186556 0.036558613 0.045164112
000160 ae bf f9 3c 5e d7 69 3d 1c 5b b3 3c c9 c9 08 bd
       0.030486908 0.057090156 0.02189403 -0.033395562
000170 a4 24 93 3c bf d9 95 bc e8 f4 50 bd cf 8a ea 3b
       0.017961808 -0.018292306 -0.05101481 0.0071576606
000180 95 28 8c bd a2 be db 3c f5 0a f5 3c d5 4f 95 3d
       -0.06843678 0.0268243 0.029912451 0.072906174
000190 39 a5 3e 3a 3b 70 f7 3c 13 9c 32 3a 66 b5 fa bc
       0.0007272545 0.030204883 0.0006813418 -0.030604076
0001a0 c6 b8 26 3c 75 14 69 3c 6d 50 ac 3d c9 e3 4f bd
       0.010175889 0.014226069 0.084137775 -0.050754342
0001b0 75 d7 ae 3b 02 71 31 3d d9 aa 5a 3d cf 39 85 3c
       0.005335743 0.043320663 0.05338559 0.016262917
0001c0 8d 86 e9 bd 68 d8 b8 3d 39 79 bd 3c e4 89 44 3c
       -0.11402617 0.09025651 0.023129093 0.011995766
0001d0 0d 23 54 3d 93 b2 a4 3d 45 f2 27 bd 84 bf b0 ba
       0.05179124 0.08041873 -0.04100253 -0.001348481
0001e0 7b 6d 15 3c 34 84 f1 3c be 8f 26 bd 05 7c cc 3c
       0.00912034 0.029481985 -0.040664427 0.02496148
0001f0 68 57 05 3e cd ce 8f 3d d9 c3 37 3c 56 3b 1f 3d
       0.13021624 0.07021866 0.011216127 0.038874947

discriminator.4.weight f4 [1, 128]
000000 26 53 02 3d cc d6 9e 3c e4 56 9c 3d 2d a8 c4 be
       0.031817578 0.019389533 0.076337606 -0.38409558
000010 6c 56 b3 bd f9 05 af 3d e6 d6 9c bd cf e1 03 3e
       -0.08756718 0.08546061 -0.07658176 0.12879108
000020 ae 30 89 3d 9c 49 bf 3d f1 95 ba 3d fa 0b cf bd
       0.06698738 0.09340212 0.0911063 -0.10109706
000030 89 b3 25 bd c7 a2 b0 be 60 34 6d 3d 90 a7 00 be
       -0.04045442 -0.3449919 0.057911277 -0.1256392
000040 5a 67 9d 3d 03 01 b7 3d 1f d5 bc bd 71 a6 ef bd
       0.07685728 0.0893574 -0.09220337 -0.11701668
000050 18 d6 7d 3d 86 14 b7 bd 24 0c cf bd cd 4f fe bd
       0.061971754 -0.089394614 -0.101097375 -0.124175645
000060 d0 0f 52 3d 77 4a 68 3d 5d d2 b4 bd ac da 91 be
       0.05128461 0.05671164 -0.08829186 -0.28487146
000070 e8 e0 97 bd 01 a7 61 3d 6f c8 83 3d c7 d7 db 3d
       -0.07415944 0.055090908 0.06434714 0.10734516
000080 5b 2c 71 3d fc 1d 76 3d f8 69 aa bd 48 69 9f 3d
       0.05888019 0.06008719 -0.08320993 0.07783753
000090 4f 96 96 3d 58 83 02 3e 1d 7e 97 3d a3 30 9b 3d
       0.07352888 0.12745416 0.07397101 0.07577636
0000a0 72 fa 89 3d 51 6a ac 3d ab 24 05 be 06 cb ed 3d
       0.06737222 0.08418716 -0.13002269 0.11610989
0000b0 8d 30 b9 3d 32 e8 17 bd b2 8a ff 3d 25 33 ac 3d
       0.090424635 -0.037086673 0.12477626 0.084081925
0000c0 70 86 ae be 32 14 68 be db ae d0 bd 27 5b 3d bd
       -0.34086943 -0.22663954 -0.10189601 -0.046229508
0000d0 2c 25 67 3d 08 7c a2 bd cb ef b5 bd ea d2 de 3d
       0.056431934 -0.07933813 -0.088836275 0.108800724
0000e0 f1 ef ea 3d 47 db cb bd a5 c6 17 3d f5 98 e6 bd
       0.114715464 -0.09953933 0.037054677 -0.11259643
0000f0 5d 4a f3 3d b8 a8 db 3d 79 54 52 3d c9 9a d4 3d
       0.11879418 0.1072554 0.05135009 0.103810854
000100 1f 35 af 3d e5 67 8e 3d 5b ab b9 bd 45 fc cf be
       0.08555054 0.0695341 -0.090658866 -0.40622154
000110 9e 2d b4 bd ef c9 e7 3d 8d a6 d8 bd 09 a1 a0 bd
       -0.08797763 0.11317813 -0.10578642 -0.07843215
000120 5b cc 8b 3d 60 8b a8 bd 49 1b b8 be b2 a2 ea bd
       0.06826087 -0.08229709 -0.35958317 -0.11456813
000130 42 fe bd 3d 18 89 c5 bd f4 79 ed bd 04 5b b5 3d
       0.092770115 -0.09645289 -0.11595526 0.088552505
000140 2d bd c1 bd 03 45 d3 bd 39 d1 ca 3c 22 21 91 bd
       -0.094599105 -0.10315897 0.024757968 -0.07086398
000150 81 03 ed 3d 9e ae ed bd 39 29 80 3d 5e a9 92 bd
       0.11572934 -0.11605571 0.062578626 -0.071612105
000160 77 11 d8 3d d0 0f da bd 14 0f aa 3d b9 41 bf bd
       0.10550206 -0.10647547 0.08303657 -0.093387075
000170 aa b4 9b 3d d4 40 ad 3d ae 74 b2 bd 93 20 f1 3d
       0.07602818 0.084596306 -0.08713661 0.11773791
000180 43 5a b2 bd 23 e2 e1 be f5 a8 d7 3d 8a 8a bc be
       -0.08708622 -0.4411784 0.10530273 -0.36824447
000190 7c 86 b6 bd e5 0c af 3d d2 a7 df bd 63 46 e1 3d
       -0.089123696 0.08547381 -0.10920681 0.10999753
0001a0 e5 c1 86 be 64 8a be bd 1c e9 8d bd 12 12 a9 be
       -0.26319805 -0.0930374 -0.06929228 -0.330216
0001b0 ae 7e 83 3d 77 7f 72 3d ca 2e a9 bd 40 59 b3 bd
       0.064206466 0.05920359 -0.082608774 -0.087572575
0001c0 b7 30 ba bd 2e 94 f5 bd a2 d8 6e 3d f5 a8 dd 3d
       -0.09091323 -0.11991154 0.058312066 0.108232416
0001d0 68 e8 a9 3d 19 51 0a bd 8a 04 b6 be 20 ea d8 3d
       0.08296281 -0.033768747 -0.35550338 0.10591531
0001e0 7b a8 8d 3d 75 73 8a 3d 81 28 90 3d 2c ac 9e 3d
       0.06916901 0.06760303 0.070389755 0.07747683
0001f0 15 62 ca 3d 3e bc f3 bd 1d 98 80 3d 5e 94 6b bd
       0.09881989 -0.11901139 0.06279013 -0.05751454
