L18/optional_wgan/wgan_mnist_01.pt (torch, 861943 bytes, 7 tensors)

generator.0.weight f4 [128, 100]
000000 9a 65 01 3e 04 e2 87 3e 39 af 2b be e4 ea b1 3e
       0.12636414 0.26539624 -0.16766061 0.3474952
000010 91 f8 a8 bd af a3 83 3e 65 47 21 be 5c 3e 32 3e
       -0.08250535 0.25710818 -0.15749891 0.174066
000020 e3 49 a7 3e 41 71 8c be 86 38 66 3e 53 dd 35 3e
       0.3267356 -0.27430156 0.224825 0.1776021
000030 52 28 de 3d 41 38 fc 3c 7a 92 8b 3d 62 ab c1 bd
       0.10847534 0.030788543 0.068150476 -0.09456517
000040 8b ad 84 3e b2 18 5f 3e ef 51 26 be 1d a6 73 3d
       0.25913653 0.21786764 -0.16242193 0.05948459
000050 32 b9 f5 bd ee 12 bc bd 52 bb f3 bd c8 c9 62 3e
       -0.11998214 -0.09183298 -0.11900963 0.22147286
000060 82 7d 93 be 41 9b e6 bd 56 b0 17 be 38 cd 00 be
       -0.28806692 -0.11260081 -0.1481336 -0.12578285
000070 df 11 80 3d e0 fe 11 be ed b4 f9 3d 9d 73 61 be
       0.06253409 -0.14257383 0.12192712 -0.22016759
000080 20 71 21 3e 6f 85 86 bd 74 f7 16 be e8 5c 2c 3e
       0.1576581 -0.06568419 -0.14742833 0.16832316
000090 7b 5c b8 bd e4 fe 80 3e b2 3a a6 bd de 12 bc bd
       -0.09002014 0.25194466 -0.08116664 -0.09183286
0000a0 df 38 3d 3e f9 74 39 be be 29 2d 3e 9c 1a 6e 3e
       0.18478726 -0.18111028 0.16910455 0.23252338
0000b0 a0 0a 0b 3e 8e 1d a6 bd f7 81 ae 3e f4 db 52 3c
       0.13578272 -0.08111106 0.3408353 0.012869824
0000c0 27 e1 d7 3d 6c 6c 1f be e3 e1 8e be 90 2b b6 bd
       0.10540991 -0.15568703 -0.27906713 -0.08895028
0000d0 13 86 6b be 29 ef 57 3e 64 0c ab bc 4f 78 20 3e
       -0.23000364 0.21087326 -0.020879932 0.15670894
0000e0 33 2d 11 3e d9 9f f1 3d 74 61 3f 3e 6c 11 71 be
       0.14177398 0.11798067 0.18689519 -0.23541802
0000f0 73 0e 5b 3c 9d 48 65 be ca 37 44 3e d9 cf 18 be
       0.013370144 -0.22390981 0.19161907 -0.14923038
000100 e3 e3 49 3e 47 b6 61 bd fd fe 8e 3e ed 3f 38 be
       0.19715838 -0.055105474 0.27928916 -0.17993136
000110 6c 3a 71 be a5 14 7b be 3d a3 59 3e 5a 49 3f 3e
       -0.23557442 -0.24519594 0.21253677 0.18680325
000120 e8 ad 22 3e 49 95 5c be 50 8a 90 be 04 12 16 be
       0.15886652 -0.21541323 -0.28230524 -0.1465531
000130 2c 75 bd bd ac c2 ed 3d ef 96 ac 3d 00 00 66 3e
       -0.092508644 0.11609396 0.08427226 0.22460938
000140 74 d3 6c be b5 f1 34 be 7d 22 fb 3d 61 02 0b be
       -0.23127538 -0.17670329 0.122624375 -0.13575126
000150 fa 28 89 3e b2 b6 b3 3c f0 53 25 3e d0 ca 58 be
       0.26789075 0.021937702 0.16145301 -0.21171117
000160 1e 70 1c be 45 ac e4 3d 70 5e 20 bd e9 8a 38 be
       -0.15277144 0.1116567 -0.039152563 -0.1802174
000170 08 34 8d 3e 09 46 86 3e a1 d0 48 be a0 fe 86 bd
       0.2757876 0.26225308 -0.19610836 -0.065915346
000180 db dd 63 3e 32 9d 5a be f8 06 c6 bd 95 20 9f be
       0.222526 -0.21349028 -0.09669298 -0.31079546
000190 ac 5f 66 be bc ed 66 3d 75 df 29 be fa b5 fd bd
       -0.22497433 0.056379065 -0.16589148 -0.12388225
0001a0 53 31 81 bd 11 a0 3c be 40 d5 4c be 36 bf 26 be
       -0.06308236 -0.18420435 -0.20003223 -0.16283879
0001b0 53 51 93 bc 89 48 e1 bd 05 6a 19 3e 5f 1e 3e 3d
       -0.017983114 -0.11000163 0.1498185 0.046415683
0001c0 1e f5 7f 3d da 34 82 bd 89 ff 3d be 95 b1 06 be
       0.06248962 -0.06357737 -0.1855451 -0.1315368
0001d0 76 60 a5 bd 15 ad 34 be 24 38 90 3d 43 bc 59 bd
       -0.08075039 -0.1764415 0.07041958 -0.053158056
0001e0 0c 47 78 bc 56 7c 97 3c c4 0a bd 3b 53 ae 5b be
       -0.015153658 0.018491905 0.0057691056 -0.21453218
0001f0 b6 d1 0e be 08 7c 00 be ba ed 07 bc b2 8a 0c be
       -0.13947186 -0.12547314 -0.0082964245 -0.13724783
000200 96 04 75 3e e3 73 ac 3d 62 b4 33 3e c4 63 b4 3d
       0.2392753 0.08420541 0.1754928 0.08808091
000210 48 01 f2 bd 65 06 79 3e 9f b8 a4 bb 58 d2 04 be
       -0.11816651 0.24318846 -0.0050268914 -0.12970865
000220 64 69 97 be d4 a6 ab be 28 08 ca 3d d6 2e 0e 3d
       -0.29572594 -0.33525717 0.09864837 0.034712635
000230 bf be 38 3d 2e 1a 17 be f0 6a 83 3d a4 1e ec bd
       0.045103785 -0.1475608 0.06416881 -0.11529282
000240 59 80 48 bc cd 8b 29 be 64 5b 55 3d 63 c8 b5 3c
       -0.012237632 -0.16557236 0.05208911 0.022190278
000250 a4 1c 5d 3d 53 42 66 be 16 c0 6d 3d 11 7a a9 bc
       0.053982392 -0.22486238 0.058044516 -0.020688089
000260 f3 2d 17 be 45 ea 85 be 15 88 33 bc fe 23 96 be
       -0.14763622 -0.26155296 -0.010957737 -0.29324335
000270 f4 da ad 3d 27 60 1c 3e 6f e2 3c 3e 59 54 0e be
       0.084890276 0.15271054 0.18445753 -0.13899364
000280 e7 78 bc 3d 81 31 e4 3d d1 35 d6 3d 99 28 37 be
       0.09202748 0.111422546 0.104594834 -0.1788658
000290 d1 d6 30 3d d1 67 08 be a3 35 4e be 66 6b 86 3e
       0.043173615 -0.13320853 -0.20137648 0.26253814
0002a0 de d9 41 3e 7c 3c 0d be 4d e2 96 bd eb 48 1b be
       0.18930766 -0.13792604 -0.07367382 -0.15164535
0002b0 ce 6b ae 3d b3 8c 62 bd 11 e9 17 be 12 b5 19 be
       0.08516656 -0.055309962 -0.14835002 -0.15010479
0002c0 8c cd c3 bd 0b f6 97 bc 62 31 5f 3e 5c 90 3e be
       -0.09560689 -0.01854994 0.21796182 -0.18609756
0002d0 21 18 3b 3e 6d 21 0b 3e 22 80 8a 3c c4 bb ab bd
       0.18270923 0.1358697 0.016906802 -0.08385423
0002e0 cc 2a 5f 3d 8d c3 54 3e 7f eb d8 3d 87 76 9b bd
       0.054484174 0.20777722 0.10591792 -0.07590967
0002f0 59 9a 73 bd 36 15 2a bd ac f1 dd 3d 5c 72 57 bd
       -0.05947337 -0.041524135 0.10837111 -0.052599296
000300 1a 37 25 3e f8 3f 1f 3e 75 89 9e bc 0e 57 0f be
       0.16134301 0.15551746 -0.019352654 -0.13998052
000310 cf 14 e0 bc a8 8f c3 bd f1 39 b6 bd e7 d0 3a 3b
       -0.027353672 -0.09548885 -0.0889777 0.0028505863
000320 b7 c3 1d be 71 14 04 3d 1a b4 26 3e f0 ad 57 3d
       -0.1540669 0.032246057 0.16279641 0.052656114
000330 71 c3 c7 3c 65 74 f0 bd ab aa c1 bd 23 f5 25 be
       0.024385186 -0.117409505 -0.094563805 -0.16206793
000340 25 9e cc bc de 75 0c 3e e1 0d 29 3e 63 70 9d 3d
       -0.024977753 0.13716838 0.165092 0.07687452
000350 d3 e9 b6 bd 7a 44 23 bd 9a 4d a2 bd 82 64 98 3d
       -0.08931317 -0.039860226 -0.079249576 0.07441045
000360 e7 0b ff bb f4 fc 14 3d 1d 01 03 3e 0c d6 9e bd
       -0.0077834013 0.036374047 0.12793393 -0.0775567
000370 77 a9 36 3d 0e 2e d8 3d 36 ad 14 be 36 94 b2 bd
       0.044595208 0.10555659 -0.145192 -0.08719675
000380 b4 27 4f be 93 86 0e bd 4f f2 48 3d c5 df 9d 3d
       -0.2022999 -0.03479631 0.04905921 0.07708696
000390 c1 da c1 bd ac 49 d2 bd da 4c 20 be fc f8 f1 3d
       -0.09465552 -0.10267958 -0.15654317 0.11815068
0003a0 02 76 0a 3e 78 84 df 3d 74 f0 b4 3c 85 82 bb bb
       0.13521579 0.10913938 0.022087313 -0.0057223462
0003b0 8f 21 d8 bd 58 d6 3d be bf 49 44 be 4c 66 4e be
       -0.10553276 -0.18538797 -0.19168757 -0.2015621
0003c0 8d da a1 3d 78 80 2f bd 2d c8 bd bd ff c7 d4 bd
       0.079030134 -0.042847127 -0.09266696 -0.10389709
0003d0 20 cd 85 bd 46 15 9e bd 8e 1d 45 be 74 eb d1 bd
       -0.06533265 -0.07718901 -0.19249555 -0.10249987
0003e0 00 5b 5d bd d0 5b e0 3d 09 c8 fd bd 0e 15 e3 bd
       -0.054041862 0.10955012 -0.12391669 -0.11088
0003f0 e1 e1 29 3d 1f 66 ac bd 61 e9 17 be de 4c 06 be
       0.04147518 -0.084179156 -0.1483512 -0.1311526

generator.0.bias f4 [128]
000000 1f 92 8c 3e 34 ad 4a 3e 4f be 2c 3e 6b 91 8f 3e
       0.27455232 0.19792634 0.16869472 0.28040633
000010 58 14 d1 3d db 1e 1a 3e c8 99 50 3e 16 75 ad 3e
       0.102089584 0.15050833 0.20371163 0.33878392
000020 13 bc 14 3e 3f 51 08 3d 4b e6 22 3e 29 df 3b 3e
       0.1452487 0.033280607 0.15908162 0.18346848
000030 ab 20 81 3d 4e fb 6a 3d 30 2e 35 3e 1b 9c b5 3d
       0.06305059 0.05736857 0.176934 0.088676654
000040 8a 70 54 3e 7b 1a 1b 3e a7 6b 52 3e 93 39 15 3e
       0.20746055 0.1514682 0.20548879 0.14572744
000050 22 b4 89 3e 23 2c c3 3d 62 1e 34 3e d4 05 60 3e
       0.26895243 0.09529903 0.17589715 0.21877223
000060 4f d4 a2 3d e1 f7 05 3e a2 fb 55 3e 93 f3 1e 3e
       0.07950651 0.1308284 0.20896772 0.15522604
000070 89 62 75 3e 31 fe 55 3e 2d 35 0f 3e 97 fe 88 3e
       0.2396337 0.20897748 0.13985129 0.26756737
000080 ac 6f 91 3e 94 2e 46 3e e0 81 72 3e 66 51 85 3e
       0.2840551 0.19353706 0.23682356 0.26038665
000090 c5 06 98 3e db 6f 60 3e 1d 84 68 3e c2 b5 77 3e
       0.29692665 0.2191767 0.22706647 0.24190429
0000a0 fe ea 2d 3d 52 18 c2 3d 14 78 41 3e 1b 61 bb 3c
       0.042460434 0.09477295 0.18893462 0.022873452
0000b0 ea 2c ab 3e 2c 4d 46 3d ef 2f 97 3e e6 02 a9 3c
       0.33432704 0.04841344 0.29528758 0.020631265
0000c0 74 9f 8f 3e 8d e6 11 3e d2 70 73 3d aa 9f 92 3e
       0.2805134 0.14248104 0.059433766 0.2863744
0000d0 52 47 ae 3e 19 16 97 3d a9 5b 02 3e 7a 4f e5 3d
       0.34038788 0.07377262 0.12730278 0.111967996
0000e0 c7 d4 f5 3d 43 b5 ee 3d 9e d9 15 3e 34 b8 32 3e
       0.12003475 0.11655667 0.14633796 0.1745308
0000f0 d0 1d 34 3e 3c b8 12 3e 0f 5c 86 3e 2a b1 2d 3d
       0.17589498 0.14328092 0.2624211 0.042405285
000100 e1 d5 c9 3e 75 7c 4b 3e 5b 7f 9a 3e c1 76 42 3e
       0.3942099 0.19871695 0.3017529 0.18990614
000110 f0 3a 3b 3d 05 77 41 3c 95 19 7c 3e ae de 7b 3d
       0.045710504 0.011808162 0.24619134 0.06149166
000120 b3 94 92 3e ef 31 40 3e 5e dc 0c 3c 2f 9f 37 3e
       0.28629074 0.18769048 0.0085974615 0.17931817
000130 06 5b 23 3e 70 ef 33 3e a4 e7 95 3e 60 f0 2c 3d
       0.15952691 0.17571807 0.2927829 0.042221427
000140 ac a9 71 3e 5c f5 d2 3e 4e 99 c3 3d 8d 7c 7a 3e
       0.23599881 0.4120282 0.09550725 0.24461575
000150 f9 b1 1e 3e 82 55 d5 3d cd 0d 21 3e 3d ec 3c 3e
       0.15497579 0.104167 0.15727921 0.18449493
000160 fc 85 d6 3e 89 7f 96 3e 49 46 84 3e 4d e8 2c 3e
       0.41899097 0.29394177 0.25834873 0.1688549
000170 f3 31 aa bc 8d 24 c4 3e 1d 2d 8f 3e 2e b3 81 3d
       -0.02077577 0.38309136 0.27964106 0.06333004
000180 42 04 ef 3d c6 0c 89 3e 3e a6 7d 3e 09 80 0c 3e
       0.11670734 0.26767558 0.24770448 0.13720717
000190 17 2c c1 39 f2 92 48 3e cb ee bb 3d 89 26 12 3e
       0.00036844678 0.19587305 0.091764055 0.14272512
0001a0 78 b3 8a 3e 20 0c c8 3d 51 62 6c 3e 12 68 88 3e
       0.2709005 0.09767938 0.2308438 0.266419
0001b0 f7 48 d3 3d 85 86 97 3e 75 00 9d 3e 91 9d c7 3e
       0.10316651 0.29594818 0.3066441 0.389874
0001c0 a6 ac d2 3e b8 6d a3 3e 09 10 4b 3e ce fe b8 3e
       0.41147345 0.31919646 0.19830336 0.361319
0001d0 7c 65 9e 3e 8a d0 53 3e 3a 84 6a 3e b2 c4 7c 3d
       0.309368 0.2068502 0.22902003 0.06171102
0001e0 f6 7f a4 3e 45 03 c7 3d d6 a9 80 3e 79 0e 63 3d
       0.32128876 0.097174205 0.25129575 0.055433724
0001f0 bb 47 76 3e fd 23 70 3e 0f da a1 3e 7e 08 1a 3e
       0.240508 0.23451228 0.31611678 0.15042302

generator.3.weight f4 [784, 128]
000000 57 10 23 3c 7d fe 39 bd 90 28 3f be 67 eb 6b bd
       0.009952626 -0.045408715 -0.18667817 -0.057597544
000010 12 eb 9e bc 63 bb 09 be 26 ce 55 be d3 56 ea bc
       -0.0193992 -0.13450389 -0.2087942 -0.028605854
000020 d5 85 b8 bd 7a 38 b1 bd 9c 11 28 be c8 8d 9e 3d
       -0.090099014 -0.0865335 -0.16412967 0.077418864
000030 1d c5 cc bd 91 46 a8 bd e7 c5 08 bd 04 f0 67 bb
       -0.09998534 -0.082165845 -0.03339186 -0.0035390863
000040 e3 d3 15 3c ce 45 fa bc 56 7b 4a be fd 4a 37 be
       0.009144756 -0.030550864 -0.19773611 -0.178997
000050 30 0b 9d bd f0 c7 01 be 48 e0 ce bd f8 21 0f bd
       -0.076681495 -0.12673926 -0.10101372 -0.034944504
000060 cf 7e 93 bd 58 a6 09 be 71 10 35 3b eb 80 fd bd
       -0.07201921 -0.13442361 0.0027628208 -0.12378105
000070 ab dc 20 be 7b f0 85 bd 27 79 ab bd 38 d4 d9 bc
       -0.15709178 -0.06540009 -0.08372717 -0.026590452
000080 d4 19 62 bd 13 d8 06 be 0f 95 0e be c5 74 10 be
       -0.055200413 -0.13168363 -0.13924049 -0.14107044
000090 14 18 02 be ea 3b 46 bd 53 a0 c6 bd e9 fc 25 be
       -0.12704498 -0.048396982 -0.09698548 -0.16209759
0000a0 16 f6 71 bc 77 48 e0 bc fb 4b aa bc 93 38 bf bc
       -0.014768144 -0.027378304 -0.020788183 -0.023342406
0000b0 7d 87 df bd 30 5b 57 be 92 38 39 be 56 a9 35 be
       -0.10914514 -0.21030879 -0.18087986 -0.17740378
0000c0 82 61 e6 bd 87 c8 c8 3c 6c 64 40 bc 83 7b 0a 3d
       -0.11249067 0.024509681 -0.011742692 0.033809196
0000d0 bb b4 eb bd ad f3 c9 bd 87 6a b1 bd c7 a1 bd bd
       -0.11509081 -0.098609306 -0.086628966 -0.09259372
0000e0 38 79 21 be 98 a4 15 3d 8b 77 a7 bd dd 92 9c bd
       -0.15768898 0.036533922 -0.08177098 -0.076451994
0000f0 b8 29 ec bd 13 c5 8d bd f9 e3 d1 bd d5 d9 65 be
       -0.11531395 -0.069223545 -0.102485605 -0.22446378
000100 58 e2 19 be 1e c2 15 be 66 62 22 bd ea f7 20 be
       -0.1502775 -0.14624831 -0.03964462 -0.15719572
000110 5f 10 5e bc f0 b0 03 be 74 c8 28 bd 5d a4 db bc
       -0.013553708 -0.12860465 -0.041206792 -0.026811773
000120 8e 6f bd bd b4 97 f7 bd 25 60 e6 bd 11 a9 a0 bd
       -0.09249793 -0.12089482 -0.11248807 -0.07844747
000130 ae cd 0c be 62 ca 07 be e1 fa b9 bd fd 02 05 be
       -0.13750336 -0.13260797 -0.090810545 -0.12989421
000140 bf 48 2f bc ae 77 85 bd 54 89 3a bd 3b 86 f2 bd
       -0.010698496 -0.06516968 -0.045541123 -0.11842009
000150 ba 31 bf bd 91 e2 00 be 43 b6 e9 bd 3d c3 ca bd
       -0.093356565 -0.12586428 -0.11411717 -0.0990052
000160 a8 75 c7 bc 1c 9a 81 bd f9 dc 6c bd d8 10 e4 bd
       -0.024348095 -0.06328222 -0.057827923 -0.11136025
000170 df 1f 31 be b3 a6 a4 bc 1c 37 08 be 72 dc 99 bd
       -0.17297314 -0.02009902 -0.13302273 -0.0751275
000180 4b 03 7c bd 16 1c 4f bd 07 92 ac bd 16 aa 12 be
       -0.061526578 -0.050563894 -0.0842629 -0.14322695
000190 c5 ce 35 be 75 b3 0f bd df b3 89 bd 7f a3 c7 bd
       -0.17754658 -0.035083253 -0.06723761 -0.09747981
0001a0 70 d3 f5 bd 78 fa f5 bd 55 00 09 be ee 5c 33 bd
       -0.12003219 -0.12010664 -0.13379033 -0.043789797
0001b0 78 f3 41 be 5c a4 e4 bd f3 05 09 bd 1e 45 dd bb
       -0.18940532 -0.111641616 -0.03345294 -0.006752624
0001c0 fa 82 e7 bc 96 af d0 bd f5 b1 39 be 03 29 b2 bd
       -0.028260697 -0.1018974 -0.18134291 -0.086992286
0001d0 11 c4 a5 bd 39 d3 9b bd 1f ad 16 bc 6b 0e 29 be
       -0.08094037 -0.07608647 -0.009196549 -0.16509406
0001e0 3f 86 22 be 3b 51 1f be 3d 67 56 3c 7d 4b 86 bd
       -0.15871523 -0.1555833 0.013086137 -0.06557367
0001f0 c2 f7 ca bc 45 66 fe bd 93 8f 4b bd 19 e1 9a bd
       -0.024776343 -0.1242185 -0.04969747 -0.07562465
000200 ce 6d 83 bd b4 ef 27 be ed 64 c1 bd 7f f8 59 bd
       -0.06417428 -0.16400033 -0.09443078 -0.0532155
000210 6f 1b 98 bc b9 6b 28 bd 6b 72 79 bd a7 12 77 bd
       -0.018567769 -0.041118357 -0.060900133 -0.060320523
000220 ed b9 3d be 74 64 af bd c3 da 01 be fd 47 bb bd
       -0.18527956 -0.08564082 -0.12681107 -0.0914459
000230 42 87 26 be be 53 1f bd b1 fe 0f be d1 a3 2c be
       -0.16262534 -0.038898222 -0.14062001 -0.16859366
000240 6d a3 f5 bd bb cb e5 bc 3d 2c f8 bd 4a ed b4 bc
       -0.119940616 -0.028051248 -0.12117813 -0.022085804
000250 94 c5 50 bd 95 92 05 bc 88 14 03 be c4 a2 ee bd
       -0.050969675 -0.008152624 -0.12800801 -0.11652139
000260 ef 31 e9 bd d1 7a e3 bd 2f 70 0f be 50 ca 6a bd
       -0.11386477 -0.1110741 -0.14007638 -0.057321846
000270 47 48 34 bd d4 1f 1c be b5 00 12 bd 65 0f bd b8
       -0.04401424 -0.15246516 -0.035645206 -9.01509e-05
000280 b3 9d f7 bc 30 7b b3 bc f9 67 0f be f4 37 b2 bd
       -0.030226564 -0.021909326 -0.14004506 -0.087020785
000290 63 a8 c4 bd 47 a6 3b be 03 26 b1 bd 79 d6 c5 bd
       -0.0960243 -0.18325149 -0.08649828 -0.09660048
0002a0 11 5e 84 bd 5f 4c 07 be 90 b3 11 be db 1f 39 be
       -0.06463254 -0.13212727 -0.14228654 -0.18078558
0002b0 99 4d 88 bd 83 8d 1c be 6b fd af bd b8 d4 3e bd
       -0.066554256 -0.15288357 -0.085932575 -0.046589583
0002c0 c6 41 2a bd 95 ef c2 bd 04 0c 4d be 15 e6 29 be
       -0.041566633 -0.09518353 -0.20024115 -0.16591676
0002d0 fd 99 a2 bc 52 d2 dd bd 5a 1c 9d bd e4 fe 44 be
       -0.019848818 -0.10831131 -0.07671423 -0.19237858
0002e0 4b e3 46 bd d1 6b a1 bd cd 0e ef bd 02 bf be bd
       -0.048556607 -0.078818925 -0.11672745 -0.093137756
0002f0 df 63 e7 bd 06 7d 8a bd 4f 07 a9 bd 21 31 9e bd
       -0.11298346 -0.067621276 -0.08253347 -0.07724214
000300 63 86 9a bd e3 e7 0f bd ef 19 0e bd 75 58 99 bc
       -0.075451635 -0.035133254 -0.0346927 -0.018718937
000310 ca 08 25 be f0 10 0e be cf 3a 56 bd ad df 2d be
       -0.16116634 -0.13873649 -0.052302178 -0.16979857
000320 7d 21 8c bd c5 9e e5 bd de 3e 29 be c4 ce ac bd
       -0.06842325 -0.112119235 -0.16527888 -0.08437875
000330 4b 22 89 bd 52 37 d0 bb 70 86 fa bd 12 5e 18 3c
       -0.06695994 -0.006354251 -0.12232673 0.009299772
000340 6e 94 71 bc 49 81 9d bd a3 e3 44 bd fb 1a e8 bd
       -0.014744861 -0.07690675 -0.048068654 -0.11333271
000350 af 31 93 bc e6 a6 93 bb 25 2d c9 bd cc c1 aa bd
       -0.017968027 -0.00450598 -0.09823064 -0.08337745
000360 20 b1 05 be 3a 47 06 be ec bf 30 bd 03 0b 2e be
       -0.13055849 -0.13113108 -0.04315178 -0.16996388
000370 c6 e0 87 bc 28 de 81 bc c9 a7 2a bc 7d db e8 bd
       -0.016586673 -0.015853003 -0.01041598 -0.11369989
000380 cc eb 51 bd 68 80 92 bd 4b 8d cf bd 6b 78 0e be
       -0.051250264 -0.07153398 -0.10134371 -0.13913123
000390 62 70 83 bd 64 b3 05 bd d1 da 8e bd a8 73 02 bd
       -0.0641792 -0.032641783 -0.0697533 -0.03184858
0003a0 f5 1e 57 bd 27 2c d2 bd f2 45 01 be 74 3d c9 bd
       -0.052519757 -0.10262328 -0.12624338 -0.098261744
0003b0 cb 85 15 be 66 e2 95 bd 96 5c 27 be 2c 15 f5 bd
       -0.14601819 -0.07318573 -0.16343912 -0.11966929
0003c0 03 1d a8 bd b3 5c 32 be fa cc 2e be 82 bb 9f 3c
       -0.082086585 -0.17418174 -0.1707038 0.01949859
0003d0 a7 04 c5 bd 2d 50 0d be 0d 0a 8f bd d1 35 c6 bd
       -0.09620028 -0.13800116 -0.06984339 -0.096782334
0003e0 7c 8b 77 3c e0 44 15 bd 73 9c f9 bd b6 a5 16 be
       0.015108939 -0.036442637 -0.121880434 -0.14711651
0003f0 00 a3 f0 bd 37 3d e5 bd f6 c4 0b be a6 96 cd 3b
       -0.1174984 -0.111933164 -0.13649353 0.006274062

generator.3.bias f4 [784]
000000 22 7b e5 bd 32 45 f1 bd 38 cf 7a bd 26 be d8 bc
       -0.11205126 -0.11780776 -0.061232775 -0.026457857
000010 07 4b eb bd fa ec 64 bd 63 83 ab b9 7e 99 d0 bd
       -0.1148892 -0.05589006 -0.00032713552 -0.10185526
000020 82 c6 28 be ee 76 07 be db 35 db bd 7c 20 2e be
       -0.16481975 -0.13228962 -0.107036315 -0.1700458
000030 e5 95 c4 bd 11 c1 91 bd c4 c6 a3 bc dc 65 22 be
       -0.095989026 -0.071169026 -0.01999224 -0.15859169
000040 b0 c5 e3 bb 9d fd 4b bd fe 7f 92 bd 73 58 b9 bd
       -0.0069510564 -0.04980241 -0.07153319 -0.090500735
000050 21 00 b8 bd 8c 94 3f bb d5 5b 52 bd c7 23 e0 bd
       -0.089843996 -0.0029232828 -0.05135711 -0.10944324
000060 53 23 ae bd 51 27 99 bd b4 f6 b0 bc df 02 88 bd
       -0.08502831 -0.07478202 -0.021602012 -0.066411726
000070 a9 42 e3 bd cb c1 a3 bd c0 d6 9d bd 42 97 fe bc
       -0.11096699 -0.079959475 -0.07706976 -0.031077985
000080 86 8d 17 be 7a d9 28 be 22 36 04 be 2f c7 d9 bd
       -0.1480008 -0.1648921 -0.12911275 -0.106336944
000090 0c 94 a8 bd f3 c4 1e be 24 21 f8 bd cd 85 54 bd
       -0.08231363 -0.15504818 -0.12115696 -0.051885415
0000a0 c2 a0 d6 bd e4 26 27 be 02 86 e8 bb de 81 0e bd
       -0.10479881 -0.1632343 -0.007096053 -0.03479182
0000b0 29 8f e0 bd 79 e0 e1 bd a8 56 50 bd a6 d3 94 bd
       -0.10964806 -0.11029143 -0.05086389 -0.07266931
0000c0 b5 6d fc bd 18 73 c1 bd 61 b4 e8 3c fd 2d 35 be
       -0.123256125 -0.094457805 0.028406324 -0.17693324
0000d0 74 9c 20 be 4e 3e 10 be bd c8 96 bd cd a6 33 bd
       -0.15684682 -0.14086267 -0.073625065 -0.043860245
0000e0 e9 8d 8a bd 00 af 35 be 70 fe 07 be 5b ad 00 be
       -0.067653485 -0.17742538 -0.13280654 -0.1256613
0000f0 ff e5 72 bd b5 de d3 bd d2 1e da bd d0 2e 62 bd
       -0.059301373 -0.10345212 -0.1065041 -0.055220425
000100 c0 dd ce bc 1e 4e fc bd 7a d5 37 3b b5 5a d7 bd
       -0.025252223 -0.12319587 0.0028050826 -0.10515348
000110 fb 35 97 bb ec a9 f0 bd 4e e0 28 bd 16 52 ab bd
       -0.0046145893 -0.1175116 -0.04122954 -0.08365266
000120 78 d5 ce bc 74 a8 65 bd 1b 7d cb bd d3 b0 c7 bd
       -0.025248274 -0.056068853 -0.09935971 -0.097505234
000130 a5 2d 70 bd 76 d3 cd bd b8 f9 ae bd 56 79 2c be
       -0.05863728 -0.100500986 -0.08543724 -0.16843161
000140 78 33 e5 bc 10 ec 48 bd 22 37 19 be 80 40 d4 bd
       -0.027978644 -0.04905325 -0.14962438 -0.10363865
000150 3e 8c aa bd 76 ad a0 bd b8 50 2b be 07 dc 88 bd
       -0.0832753 -0.07845585 -0.1673001 -0.06682592
000160 3e e0 91 bd dd a7 a7 bd b4 a1 ae bd 41 59 e9 bc
       -0.07122849 -0.08186314 -0.08526936 -0.028484942
000170 9c 20 a8 bc f8 3e d1 bd 8f ad da bc 01 12 00 be
       -0.020523362 -0.102170885 -0.026694087 -0.12506868
000180 17 f5 2b bd db 54 dc bc c5 8f 08 bd 0d bd 07 bd
       -0.041981783 -0.026895931 -0.033340234 -0.033139277
000190 b3 d2 06 be 99 b7 8b bc 62 af 01 be 23 58 31 bd
       -0.13166313 -0.01705532 -0.1266456 -0.043296944
0001a0 ed 36 dd bd c9 bd 42 bd 89 8e 13 be 80 11 3b bc
       -0.10801492 -0.047544274 -0.14409842 -0.011417747
0001b0 1e 7b 98 bd 5e 62 4b be 8f d4 21 be b4 11 03 be
       -0.07445358 -0.19861743 -0.15803741 -0.12799722
0001c0 46 46 98 bd e2 0e 83 bd 48 64 92 bd 5a ed 93 bd
       -0.074352786 -0.06399323 -0.071480334 -0.072230056
0001d0 4f 39 26 be 2a 2a 8e bd 60 01 21 bd 2a 24 10 be
       -0.16232799 -0.06941636 -0.039307952 -0.14076295
0001e0 84 a7 63 3c b4 93 9f bd b7 78 9c 3a 8b 2a 49 bd
       0.013894919 -0.07791844 0.0011937831 -0.049112838
0001f0 ba 42 92 bc 4f d5 b8 bc 04 21 f0 bd 61 02 d3 bd
       -0.017854083 -0.022562651 -0.11725047 -0.10303188
000200 92 51 d3 3c 2f e1 6f bb fc b3 a6 bd 7f 41 33 bd
       0.025795732 -0.0036602726 -0.08139798 -0.043763634
000210 60 0b 5e bd 5e a6 18 bc 23 a6 4f bd 47 34 d2 3c
       -0.054210067 -0.009317009 -0.05069555 0.025659693
000220 13 53 84 bd f8 67 9a bd 67 85 38 be ea 19 bd bd
       -0.06461158 -0.07539362 -0.18019639 -0.09233458
000230 c5 ee bb bd e6 61 2d be 89 63 22 bd ac 85 28 be
       -0.09176401 -0.16931877 -0.039645705 -0.16457242
000240 83 71 7e bd 5b 3a d0 3b 0a f5 03 be 5f 59 9d 3b
       -0.062119972 0.0063546128 -0.12886444 0.0048019136
000250 54 e6 e3 bc 9f 1a 81 bd 64 d7 20 3c 7a c0 8a bb
       -0.02781979 -0.06303906 0.009816978 -0.004234371
000260 2d e8 07 3d ac c7 2c 3d b4 f2 d1 b8 8d 6a cf bc
       0.033180404 0.04218261 -0.000100111036 -0.025319362
000270 1d 3a 69 bd d5 6f b9 3c ff 90 84 3c 15 29 0a 3d
       -0.056940187 0.022636333 0.01618242 0.033730585
000280 69 15 b0 bd 0e 98 20 3d 2f 9b 7c bd 47 05 a0 3b
       -0.08597834 0.03920751 -0.061671432 0.0048834416
000290 0f cb 28 3c 83 57 67 bd 62 6a 1b be 32 8a 90 bc
       0.010302319 -0.056479942 -0.151773 -0.017644022
0002a0 95 3c 3b be f6 14 10 be ab 21 23 be 82 46 23 bd
       -0.18284829 -0.14070496 -0.15930812 -0.039862163
0002b0 1b 8a 79 bc f5 56 14 bd c5 43 7d bd 0a d3 c8 bd
       -0.015230681 -0.03621574 -0.06183221 -0.098058775
0002c0 9a 7b 7a 3c dc cc 42 3d 73 ed a7 bc 49 6f b3 bc
       0.015288258 0.04755865 -0.020498967 -0.02190365
0002d0 f6 39 ff bc 1f ec 30 bd c2 fe 74 3d 30 72 a7 3d
       -0.031155568 -0.043193933 0.05981327 0.081760764
0002e0 c5 09 15 3d c0 b9 b5 3c 4e df 8c bc 1e b1 ae 3c
       0.03638627 0.022183299 -0.017196324 0.02132469
0002f0 96 96 01 bd 91 f1 72 3d 55 cc 4e 3c 84 a4 f8 bd
       -0.03163775 0.059312407 0.012621959 -0.12140754
000300 71 2f a5 3c 82 fd d0 bd 0d 8e a3 bc b5 6f 45 be
       0.020164223 -0.10204603 -0.019965196 -0.19280894
000310 7c 3a 30 be 83 ba b1 bc fd cf 26 be 42 4b b7 bd
       -0.1720981 -0.021695381 -0.16290279 -0.08949901
000320 2d 6c 2d 3d cf 91 73 bc 20 7b 92 3b 1c 21 9c bc
       0.042339493 -0.014866306 0.004470244 -0.019058757
000330 d3 3c b9 bb 9c 32 b3 bd 81 6d 2e bd 56 fd 64 3d
       -0.0056530028 -0.08749887 -0.0425849 0.055905662
000340 02 82 81 3d 16 28 33 bc fe 26 27 3d b4 5b bc 3c
       0.06323625 -0.01093485 0.04080867 0.022992946
000350 1d 0c 8e 3d 34 23 b3 bc 9b 5e a5 bd a2 c8 a4 bc
       0.06935904 -0.021867372 -0.08074685 -0.0201152
000360 f7 85 11 3d f8 59 7b bc 84 37 99 bd 51 38 ea bc
       0.03552815 -0.015341274 -0.07481292 -0.028591307
000370 1e 47 b9 bd 97 6e cc bd ee 6c 71 bd fb 40 da bd
       -0.09046768 -0.09982031 -0.058941774 -0.10656925
000380 2d 34 3c be 24 66 61 bd e9 d4 92 bc 7a ae ad bc
       -0.18379278 -0.05502905 -0.01792379 -0.021201361
000390 53 d6 d5 bd de 3e 3c 3d 50 47 d6 3c 38 86 c7 bd
       -0.1044127 0.045958392 0.026157051 -0.09742397
0003a0 ba 3f cb bd 45 9e 89 bc b0 cc 0c 3d 2d ba e1 3c
       -0.09924264 -0.016799102 0.034374893 0.027554596
0003b0 2e 38 4e 3d 3a d9 1a bb 9b 0e 9c 3d 57 3c ac 3d
       0.050346546 -0.0023628012 0.07619973 0.084099464
0003c0 e6 a1 62 3d 71 30 8e 3d 20 46 bd 3b b5 92 a8 bd
       0.05533018 0.06942833 0.005776182 -0.08231107
0003d0 f9 81 be 3c 99 55 31 bd f3 36 47 bc 9f 72 9d bb
       0.023255335 -0.043294523 -0.012159097 -0.0048049237
0003e0 f8 95 9c 3c c4 40 05 be 5f 73 18 be b6 f7 f7 bd
       0.01911448 -0.13012987 -0.1488776 -0.12107794
0003f0 09 45 ad bd 23 36 c2 bd 87 ae 06 be 08 3a 83 bd
       -0.08460433 -0.09482982 -0.13152514 -0.06407553

discriminator.1.weight f4 [128, 784]
000000 67 2c 90 39 2e a6 c0 39 91 4d 24 b7 bc 72 80 38
       0.00027498903 0.00036744907 -9.793222e-06 6.1248866e-05
000010 36 29 e3 39 2a 8d b3 39 88 98 b4 39 41 14 f2 39
       0.00043327519 0.00034246716 0.0003444592 0.00046172927
000020 08 37 96 39 b8 50 fa 39 e5 f0 ab 39 08 cf 6e 39
       0.0002865123 0.00047743856 0.00032795142 0.00022774574
000030 ed f7 db 39 c7 11 08 3a 40 7a b6 39 19 95 b4 39
       0.00041955654 0.00051906373 0.00034804828 0.00034443362
000040 45 23 8c 39 42 eb 8b 39 c5 5c 09 3b cc a7 f2 39
       0.0002672916 0.00026687427 0.0020959836 0.00046282855
000050 67 c2 c0 39 99 32 cb 39 16 dc fd 39 2c 5b a3 3a
       0.00036765935 0.00038756875 0.00048419897 0.0012463084
000060 a7 4e f8 39 ed 7b ce 39 a4 e3 d1 39 38 f0 88 39
       0.00047360847 0.00039383714 0.00040033192 0.00026118918
000070 95 f0 a9 39 d2 04 c8 39 8f 17 b6 39 80 36 aa 39
       0.0003241344 0.00038150564 0.00034731298 0.00032465532
000080 86 ca ae 39 57 0a c0 39 52 d2 14 3a 8c 39 8d 39
       0.00033338758 0.00036628798 0.0005677092 0.00026936491
000090 ec d7 04 3a a9 d2 30 3a ac df 44 3a 3c e4 45 3a
       0.0005067575 0.0006745258 0.00075101363 0.0007548963
0000a0 52 d1 27 3a 29 01 a1 3a 96 36 9e 3a 82 e0 73 3a
       0.00064017356 0.0012283671 0.0012070711 0.00093031686
0000b0 fe 76 66 3a 6e 76 6c 3a 28 b4 2c 3a bb 96 27 3a
       0.0008791535 0.0009020333 0.00065881247 0.0006393005
0000c0 ba bf 34 3a 17 0a fb 39 92 2b 21 39 81 37 9f 39
       0.00068950246 0.00047881968 0.00015370388 0.00030368197
0000d0 f1 f5 31 39 b3 c5 bf 39 03 df a6 39 5e 59 ad b9
       0.00016971656 0.00036577656 0.00031828144 -0.00033063715
0000e0 6c 2a b3 39 17 3e ca 39 30 34 c7 39 a7 2e d1 39
       0.00034173147 0.00038574703 0.0003799512 0.00039898345
0000f0 7e 36 9e 39 b7 0c 8a 39 44 8a 3d 3a 95 db 1c 3a
       0.00030176708 0.00026330884 0.0007230381 0.0005983648
000100 80 49 53 3a 7d 3c 80 3b 1c 21 fb 3a e1 7d 14 3c
       0.00080599636 0.0039134608 0.0019159648 0.009063215
000110 9f 16 0d 3b 59 26 0d 3b 5e 76 a3 3b 4d d9 ec 38
       0.0021528376 0.002153775 0.0049884757 0.00011293832
000120 46 75 90 ba 16 b5 fc ba e9 df e7 b9 e2 b5 45 3b
       -0.0011021278 -0.0019280042 -0.0004422658 0.0030168225
000130 32 45 fc 3a c8 37 83 39 ef a5 49 3a 38 f6 1d 3a
       0.0019246696 0.00025027827 0.00076922675 0.0006025764
000140 78 ed e6 39 35 2c 08 3a 3e 0e 7a 39 cc bf 67 39
       0.00044045947 0.00051945756 0.00023847164 0.00022101327
000150 d9 7e 6c 39 c7 6c b9 39 5e 0a 91 39 fe 95 a7 39
       0.00022553968 0.00035366995 0.0002766428 0.00031964475
000160 59 2d 86 39 4c 42 f1 39 5d cf 97 39 f8 49 58 3b
       0.00025592258 0.00046016497 0.00028955462 0.0033003073
000170 5f eb f9 3b ea 75 a4 3b ee 0e 07 3c 17 4c 10 3c
       0.0076269354 0.0050189393 0.008243306 0.008807204
000180 c6 7c 9d 3b b7 97 13 3c fe 70 0e 3c 14 c1 0f 3c
       0.004806134 0.00900834 0.008693932 0.008774061
000190 bc 12 fb 3a 38 53 0c bb 73 37 40 ba f7 a2 4b ba
       0.0019155364 -0.0021411907 -0.00073324813 -0.0007768119
0001a0 22 16 d1 b9 6c 25 19 bb a4 36 6b ba f2 26 cb 3a
       -0.00039880077 -0.0023368252 -0.00089726807 0.0015499278
0001b0 9c 23 07 3a 1d 9f c8 39 0e 60 f3 39 3d b0 a6 39
       0.00051551475 0.0003826552 0.00046420138 0.00031793295
0001c0 01 7d c0 39 87 bf e4 39 4a d7 bb 39 a0 17 95 39
       0.0003671423 0.00043630248 0.00035827822 0.00028437097
0001d0 8c a0 ec 39 f2 bf a7 3b c5 66 7f 3b 00 05 84 3a
       0.00045133044 0.005119317 0.0038971168 0.0010072291
0001e0 3b f5 14 3c aa de 16 3c 44 4a 15 3c 46 c4 13 3c
       0.009091671 0.009208361 0.009111945 0.009018963
0001f0 06 2e 18 3b 85 e9 1d 3b 59 6d ff 3b 3b 63 df bb
       0.0023220791 0.0024095487 0.0077950177 -0.006817249
000200 06 26 4c 3b cd 50 c3 bb 31 e4 d8 bb 23 84 15 ba
       0.0031150593 -0.00596056 -0.0066189994 -0.0005703589
000210 d0 45 1b bb 8a bb 0e 3c 96 5d 78 3b f1 bf 40 3a
       -0.0023692735 0.008711705 0.0037897578 0.000735282
000220 dd 66 d3 39 17 69 59 3a 14 5d ea 39 95 00 14 b9
       0.00040321695 0.00082935527 0.00044701307 -0.00014114597
000230 10 d5 04 3a cc 9b a8 39 ac 82 80 39 8f b8 26 3a
       0.0005067149 0.00032159535 0.0002451142 0.0006359899
000240 dc 4a e6 3b c3 e8 3c 3b fc 55 a4 3a 1b 68 19 3c
       0.007027967 0.002882526 0.0012537832 0.0093632
000250 d8 96 dc 3b 5b 6c aa 3a f0 35 c3 3b 87 0b 96 3b
       0.006731849 0.0013002263 0.0059573576 0.004579011
000260 bf e5 e5 3b c2 63 c4 3b ed 2d b9 3b e0 95 f2 bb
       0.0070159133 0.0059933374 0.0056512267 -0.0074031204
000270 5b 30 ac 3a 38 6c 20 3c d7 b2 1e 3c db 97 9b 3a
       0.001313697 0.009791426 0.009686193 0.0011870818
000280 ac ea 07 3a 30 bd 62 bb 9d 79 96 3b 9e 82 13 3c
       0.000518481 -0.0034597628 0.004592134 0.0090033095
000290 34 a8 06 3c 09 21 d5 3a ff a4 7c 3a 07 49 e0 39
       0.008218814 0.0016260456 0.00096376234 0.0004277902
0002a0 3e 3f d0 39 e3 11 81 39 77 72 ea 39 5d 25 81 3a
       0.0003971997 0.00024618124 0.0004471724 0.0009853054
0002b0 cd 2e 06 3a d3 f9 aa 3b ff cb 09 3c ec ec 7b 3b
       0.0005118668 0.0052177696 0.008410453 0.0038440777
0002c0 6b 41 bd bb b6 c0 01 3b bd 7a d0 bb 39 13 ce bb
       -0.0057756207 0.0019798703 -0.006362288 -0.0062889126
0002d0 33 40 ad 3a f4 f2 7e bb 0d 4b 18 bc 7d 2f 9f b9
       0.0013217985 -0.0038902136 -0.009295237 -0.00030362225
0002e0 18 a9 a1 3b b2 7b de 3b 54 27 a3 ba c3 0d 9b ba
       0.0049334876 0.006789648 -0.0012447634 -0.0011829663
0002f0 93 b4 c4 3b df 62 e5 3b a3 c5 aa bb 6b 79 16 3c
       0.0060029714 0.0070003117 -0.0052115484 0.009184222
000300 4b 59 1a 3c 86 d8 10 3b d3 10 6e 3a 1e 76 c3 39
       0.009420703 0.0022101714 0.00090814865 0.00037281303
000310 2e 67 ac 39 00 2d fe 39 a7 06 aa 3a 92 4f c4 3b
       0.0003288327 0.00048480183 0.0012971953 0.005990931
000320 4f a1 7e 3b 3a cf 12 3c 99 d9 01 bb 68 dc 36 ba
       0.0038853472 0.0089605395 -0.0019813536 -0.0006975592
000330 8f 0e 87 bb 56 af e0 bb d4 23 ea 36 43 93 d0 3b
       -0.0041216086 -0.006856839 6.9779144e-06 0.006365211
000340 8f cd 94 3b 48 60 ba 3b de 68 d5 3b 66 fd a8 ba
       0.004541106 0.005687747 0.0065127453 -0.0012892901
000350 d8 4d e8 3b 55 71 16 3c dd 46 10 3c d9 52 cc 3b
       0.007089358 0.009182294 0.008805958 0.006235462
000360 27 9a 16 3c 1b 37 1f 3c 62 04 9f ba f6 38 1c 3c
       0.009192026 0.009717728 -0.0012132043 0.009535065
000370 20 68 22 3c c5 ab 1f 3b 60 70 28 3b 9f f0 1b 3a
       0.009912521 0.0024363857 0.0025701746 0.0005948636
000380 02 84 5d 3b 40 ef 1e 3a 59 b4 2a 3b 69 3e 81 3b
       0.0033800607 0.00060628727 0.0026047437 0.0039442074
000390 23 0f 5a 3b 8b 9e 1a 3c 8f 49 10 3c 8c 23 f5 3b
       0.0033273182 0.009437214 0.0088066 0.007481044
0003a0 44 97 8e 3b 41 05 f2 3a 09 00 bb 3b 18 82 d8 3b
       0.0043515284 0.00184647 0.0057067913 0.0066073053
0003b0 06 c1 fa 3b a8 ce 44 3b d2 e4 81 ba 30 be 07 bc
       0.0076524047 0.0030030403 -0.0009910113 -0.00828509
0003c0 a9 35 1d 3c 65 f5 17 3c 67 19 15 3c 1c 37 11 3c
       0.009595313 0.009274815 0.009100295 0.008863237
0003d0 2f 93 15 3c b6 2e 0e 3c 40 7d d9 3a 67 40 1e 3c
       0.00912933 0.008678129 0.0016593114 0.009658909
0003e0 4e f2 bd 3a fe b9 f6 b8 bf 01 97 39 59 d0 6f 39
       0.0014491768 -0.00011764838 0.00028802265 0.00022870432
0003f0 39 4f fd 39 16 91 cc 39 41 4a 07 3c 33 90 f8 3a
       0.00048314946 0.0003901801 0.00825745 0.0018963873

discriminator.1.bias f4 [128]
000000 7c ce 06 ba a2 e8 b6 38 79 cd 83 3b fa ac af 3a
       -0.0005142463 8.7217675e-05 0.004022297 0.0013402991
000010 bb 8b b1 3b f3 9c ef 39 71 1e 18 bc a9 33 4c 3b
       0.0054182685 0.0004570257 -0.009284602 0.0031158722
000020 46 9d 8b 3b 52 aa ac bb b2 02 9d bb 71 80 19 3c
       0.004260692 -0.005269327 -0.004791581 0.009369002
000030 29 4d 1a bb 1f 90 82 3a 5b 7f 93 37 2b 3e 06 bc
       -0.0023544526 0.0009961164 1.758307e-05 -0.008193533
000040 e8 90 98 3a fa b7 79 ba 6a f4 85 bb d4 f4 40 bb
       0.0011639865 -0.0009526011 -0.0040879743 -0.0029442804
000050 26 a1 0d 3b 22 7b 37 bb 2e c2 68 3b 9d dd f6 ba
       0.0021610945 -0.0027996977 0.003551613 -0.0018834356
000060 0c 1b 86 bb dd f9 2b bb 45 c0 9c 3a 8d 57 d9 bb
       -0.0040925797 -0.002624146 0.0011959156 -0.0066327513
000070 f6 da bf 3b 5d ca a6 3b 4d b8 84 ba 6d c4 da b9
       0.0058549596 0.0050900416 -0.0010125727 -0.0004172655
000080 79 fd 55 3a de fc 55 3b 7a 98 f2 ba 5d 69 3d bb
       0.00081630755 0.0032651941 -0.0018508576 -0.0028901913
000090 ea 42 cd 37 d9 3e 66 3b 29 bc d9 bb bb bc 01 bb
       2.4469064e-05 0.0035132675 -0.006644745 -0.001979633
0000a0 e4 2b 12 3c 3d 23 9c 39 bb 5b 39 bb 85 72 70 3b
       0.008921597 0.00029780893 -0.0028283435 0.0036689353
0000b0 50 07 39 3b 99 b4 df ba b5 a3 90 3b f7 2e 49 ba
       0.0028233118 -0.0017067372 0.0044140466 -0.000767454
0000c0 8b 04 3e 3b 8e 2c 0a bb 8b af 19 3c a3 50 98 ba
       0.0028994407 -0.0021083686 0.009380232 -0.0011620711
0000d0 94 9b 07 bb 97 3e 74 3b 90 d0 c3 bb 20 ca 5b ba
       -0.0020692097 0.0037268752 -0.0059757903 -0.0008384306
0000e0 0b 66 11 bb 1d cf f2 bb fd 42 18 bb ac ae 3f bb
       -0.0022186066 -0.0074099437 -0.0023233288 -0.00292484
0000f0 b9 fe 88 3b e5 3f 79 3b 96 f7 28 3b 3e 3c 85 3b
       0.004180756 0.003803247 0.0025782338 0.0040660193
000100 83 69 3c bb 73 cc b2 3b 91 be a4 ba 5e f6 00 ba
       -0.0028749413 0.005456501 -0.0012569 -0.0004919524
000110 5d 63 4c 39 6a 79 1e ba 12 8e b6 37 38 e0 89 bb
       0.00019491972 -0.0006045314 2.1762247e-05 -0.004207637
000120 64 15 7c 3a 4d c7 3d 3b ec 3f b2 bb 25 d6 2c 3a
       0.00096162246 0.0028957904 -0.005439749 0.00065931893
000130 ff 7a cc 39 0f 8b 5d 3b 66 f0 70 3b ca 83 6b 3b
       0.0003900155 0.003380481 0.0036764382 0.0035936707
000140 82 7c 44 3b 75 d2 c3 bb cf 4a 0c 3b 4b 58 41 ba
       0.002998144 -0.005976016 0.0021406894 -0.00073755224
000150 04 7b c8 ba b0 d4 a5 ba 6a 1a ab 3b f3 23 86 bb
       -0.001529545 -0.0012651887 0.0052216547 -0.004093641
000160 d1 19 cd ba de 5a d5 39 35 b9 05 b9 93 98 83 3b
       -0.0015647953 0.00040694227 -0.00012752863 0.004015991
000170 b1 4f c3 3a 2d 23 60 3b 60 98 97 bb f0 e1 de b7
       0.0014901069 0.0034200654 -0.004626319 -2.6569673e-05
000180 f4 1d 4a ba 3b 89 03 bb 74 73 fa 3a bd 5b 12 bb
       -0.0007710152 -0.002007081 0.0019107894 -0.0022332512
000190 3e d7 e8 b9 e1 a5 c5 bb 45 2c 8a bb 0e 3e ae bb
       -0.00044410856 -0.006031737 -0.004216703 -0.005317456
0001a0 1a de d0 3b 68 ce f5 ba ab 81 93 3a c2 ce 7a 3b
       0.006374133 -0.001875353 0.0011253854 0.003827021
0001b0 a8 16 8d 3b 30 ce 18 bb 78 f4 8e 3b 19 30 d9 ba
       0.0043056794 -0.0023316257 0.004362639 -0.001657012
0001c0 cd 92 5b 3b b2 ec cf 3b 00 6e d7 3b 02 32 18 bc
       0.0033504248 0.006345355 0.0065743923 -0.009289267
0001d0 fb ba 44 3a e8 30 1d 3b e1 08 d7 3b 02 d5 16 b9
       0.0007504669 0.002398545 0.0065623377 -0.00014384466
0001e0 6f d9 2a 3b 9f 7f 59 3b 0e 59 e9 3a d1 9d e9 bb
       0.0026069542 0.003318764 0.001780303 -0.007129409
0001f0 0e e4 6a 3a ca 11 fa 3a a3 e3 0c bb ab 46 88 ba
       0.00089603744 0.0019078788 -0.0021497987 -0.0010397037

discriminator.4.weight f4 [1, 128]
000000 20 be ae 3b b1 d0 b1 3a 76 3d ad 3a 1e 02 22 38
       0.0053327233 0.0013566223 0.0013217169 3.862578e-05
000010 ed e8 cb 3b 62 39 ce 3b 73 b6 14 3c 87 9d 0d bb
       0.0062228353 0.0062934617 0.009076702 -0.0021608786
000020 5d 05 37 3b 50 5f a8 bb b2 88 eb bb ec 19 0b 3c
       0.002792678 -0.0051383153 -0.007187926 0.008490067
000030 86 b3 89 bb be 08 92 bb ea 7e 2f ba 65 4d 06 3c
       -0.004202309 -0.0044566086 -0.0006694632 0.008197163
000040 bf 57 32 3b f2 ff 0c 3b 16 02 6b 3b d3 cc 0e 3c
       0.0027212945 0.002151486 0.0035859398 0.008715826
000050 5b 6d 09 ba fb 01 10 3a b6 e5 93 ba 53 72 0a bb
       -0.00052424305 0.0005493459 -0.0011283669 -0.0021125271
000060 3d cd be 3b c3 51 2d ba 46 dd bd ba 0e f9 e0 bb
       0.005822806 -0.000661161 -0.00144855 -0.006865627
000070 3e 84 4d 3b cc 8b d0 3a 38 6a 6a bb 2c e9 82 ba
       0.003135934 0.0015910803 -0.0035768878 -0.0009987704
000080 4d d6 4d 3b f2 a4 2a bb 70 e0 9c bb b1 30 f3 bb
       0.003140825 -0.0026038256 -0.004787497 -0.007421576
000090 a6 33 88 3a f1 99 4f 39 bc 66 ee 3b 24 d4 ea ba
       0.0010391369 0.00019798406 0.0072754305 -0.0017916006
0000a0 05 dc ed 3b 44 ff 7e 38 06 fc ec ba 61 9b 8a bb
       0.0072588944 6.0796054e-05 -0.001808048 -0.0042299484
0000b0 63 91 22 bb ff 14 0e 3b fa 49 1d 3b 6f 9b b3 3b
       -0.0024805896 0.0021679995 0.0024000392 0.0054811756
0000c0 fd bd 69 bb 82 46 ba 3a 0a d7 23 bc 4f 35 6d 3a
       -0.003566622 0.0014211687 -0.01 0.0009048776
0000d0 69 41 c8 3a b0 e5 19 bb 66 93 b8 3b f8 47 5c 3a
       0.0015278283 -0.0023482852 0.0056328056 0.0008403058
0000e0 5e 67 b7 3b fb 22 be bb f7 02 97 bb 6b 15 23 3c
       0.005597039 -0.00580251 -0.0046085077 0.009953837
0000f0 fe 0e 30 bb fb 4c 1d ba 13 03 f9 ba 63 52 a7 b9
       -0.0026864405 -0.00060005457 -0.0018998109 -0.00031914105
000100 a3 aa 3b 3b 59 e2 4c 3b ee c7 97 3a 3e af 68 3b
       0.0028635643 0.0031262843 0.001157997 0.0035504843
000110 0a cb ff 38 98 81 8c 3b 62 66 8d bb b5 77 c4 3a
       0.000121971665 0.0042879097 -0.0043151835 0.0014989289
000120 c0 b3 11 bc 2f de 29 3b 41 b6 2d 3a c8 25 84 b8
       -0.008892953 0.0025919785 0.0006626584 -6.301288e-05
000130 f0 0e d5 3b 58 32 83 bb 8d 74 c2 3a 3e cc ce 3a
       0.006502025 -0.004003804 0.001483576 0.0015777422
000140 cd 9f ca 39 02 4c 93 bb cf 21 70 3b fd 5e 76 bb
       0.00038647503 -0.004495145 0.0036641245 -0.0037593239
000150 2a bb 98 bb 52 2d 18 bb b1 6e a6 bb 64 3d b7 3a
       -0.0046609836 -0.0023220372 -0.0050791134 0.0013980088
000160 b0 8e 80 3b c5 85 28 ba 84 f3 96 ba a7 97 6d 39
       0.0039232597 -0.00064286246 -0.0011516665 0.00022658576
000170 c3 49 e0 3a b4 1a 71 bb 48 36 3a 39 2a 77 13 bb
       0.0017111826 -0.0036789598 0.00017758564 -0.0022501447
000180 ec 77 d6 39 46 37 e2 bb 68 85 21 bc a7 88 32 bb
       0.0004090661 -0.0069035618 -0.009858467 -0.0027242096
000190 9c d3 f2 3b 84 52 9a 3b 72 4e 15 bb 5e c1 07 bb
       0.0074104797 0.0047095437 -0.0022782353 -0.002071462
0001a0 20 a4 23 bc b5 94 0b ba 6c 9b 88 ba 41 3f ad 3a
       -0.009987861 -0.0005324588 -0.0010422296 0.0013217704
0001b0 40 c6 6a bb 43 17 2c 3b 93 a0 3b bb da aa fd 3a
       -0.0035823733 0.0026258982 -0.0028629645 0.0019353286
0001c0 19 da d5 ba 24 4f c4 bb 94 b3 88 3b 0a d7 23 3c
       -0.0016315609 -0.0059908796 0.004171798 0.01
0001d0 72 23 6a ba 17 56 d7 3a 37 d2 a4 3b 2c d6 ff 3a
       -0.00089316734 0.0016428855 0.0050299424 0.0019518784
0001e0 9b de 6a 3b c8 24 b9 3a 57 e3 ea b9 54 58 c0 3b
       0.003583825 0.0014125342 -0.0004480134 0.0058699045
0001f0 36 f7 11 bb 00 a1 6d 36 99 ab 46 bb 85 22 e0 ba
       -0.0022272593 3.5409466e-06 -0.0030314683 -0.0017100131
